1--第1章 Pytorch工具-v2.0/cifar_net.pth (torch, 328340 bytes, 10 tensors)

conv1.weight f4 [6, 1, 3, 3]
-0.08455247 -0.31337893 -0.22877169 0.09933814 -0.055014644 -0.315236 0.08378361 0.095593475
0.2418771 -0.0142992465 0.004227041 0.0530322 -0.26914826 0.14924459 0.22119823 -0.25271523
0.2158387 -0.23153709 -0.23968206 -0.2757333 -0.021310303 0.32344773 0.121308126 -0.13401978
-0.08489096 0.049032543 -0.19705765 0.15362693 -0.11304541 -0.27572998 0.30874604 -0.024600996
-0.20582844 -0.15180032 0.24479288 -0.19012108 -0.26590058 -0.2982479 -0.026692921 0.10253361
-0.17877671 0.16366254 0.30359125 -0.22675486 0.12405428 -0.07686557 -0.0821376 -0.23160969
-0.14080328 0.22180231 -0.25425017 -0.24939437 0.099668756 -0.18253182
00000000: d829 adbd 3473 a0be 2043 6abe cb71 cb3d
00000010: 0957 61bd 9d66 a1be be96 ab3d 83c6 c33d
00000020: a1ae 773e 6347 6abc fd82 8a3b 4b38 593d
00000030: cdcd 89be 93d3 183e ca81 623e e463 81be
00000040: d204 5d3e 0f18 6dbe 376f 75be ea2c 8dbe
00000050: f292 aebc f19a a53e 6570 f83d 7b3c 09be
00000060: 50db adbd 59d6 483d 7bc9 49be 6150 1d3e
00000070: 5a84 e7bd 7b2c 8dbe f613 9e3e 0788 c9bc
00000080: b1c4 52be 8b71 1bbe fcaa 7a3e 1aaf 42be
00000090: 1f24 88be f3b3 98be 1dab dabc 24fd d13d
000000a0: 3e11 37be 2797 273e 5070 9b3e 6d32 68be
000000b0: 2c10 fe3d b26b 9dbd c237 a8bd 172b 6dbe
000000c0: bc2e 10be 2520 633e 142d 82be 3d61 7fbe
000000d0: 221f cc3d 9fe9 3abe

conv1.bias f4 [6]
0.14152764 0.17002475 -0.2387716 -0.07599666 -0.011079137 0.073140725
00000000: 9fec 103e f81a 2e3e 8b80 74be 23a4 9bbd
00000010: 4585 35bc ceca 953d

conv2.weight f4 [16, 6, 3, 3]
-0.03585932 -0.07319921 -0.076737046 -0.047160566 -0.097236246 0.051696587 -0.011038019 0.024591533
-0.10079573 0.023852598 -0.11837731 -0.069685765 0.00950089 -0.024275066 0.0962536 -0.12758069
0.008449134 0.08467474 -0.115573354 -0.06646257 0.07495551 -0.081875145 -0.025435401 -0.061771736
-0.059634853 -0.11892491 0.07810931 -0.033036157 -0.059086338 -0.033093374 -0.10661721 0.07194685
0.12790924 0.11183833 0.11661821 0.11979435 0.099643916 0.07811592 -0.053585473 -0.029811887
-0.09162262 -0.086367026 0.09753295 0.0907229 0.12252894 0.12609242 -0.08847155 0.1329525
-0.060785297 0.103507444 0.07148772 0.006637063 -0.026902754 -0.11164373 -0.11705206 0.0063897427
-0.039749175 0.13218191 -0.06810677 -0.10645426 -0.08001751 0.10569081 -0.03502686 0.067579016
-0.054494638 0.11834382 -0.13125317 0.13569352 -0.08003008 -0.12018881 0.049112394 0.07350867
-0.05085015 -0.10627737 0.054910287 -0.09360595 -0.1288408 -0.12128148 -0.0884485 -0.09771127
-0.1176779 0.014486711 0.052247763 -0.056667212 0.12156076 -0.013941818 0.0008890605 -0.07711385
0.100579895 0.1099607 0.10896587 0.088314645 -0.10575174 -0.13363998 0.07234561 0.12752129
-0.016701 0.12615009 0.13308096 0.06640063 -0.10095405 -0.061974436 -0.11019185 -0.05703743
-0.07354777 0.11318804 -0.043152392 -0.028887384 0.038744435 -0.032814514 0.092348665 -0.084217265
-0.005792166 -0.06618505 -0.09962986 0.06305446 0.008606148 0.07523038 -0.047329634 0.07985993
0.10241248 -0.10434077 -0.118129194 -0.087527566 -0.024556195 -0.020423874 0.06191949 -0.01278842
-0.09682155 -0.05627804 -0.013051758 -0.08132815 0.1354058 0.028517202 -0.097036235 0.10137187
0.078947544 0.021927917 0.00573732 -0.08627526 -0.034608636 -0.05419366 0.010689533 -0.10503086
-0.0068974895 -0.13075429 -0.053856567 0.121965215 0.06972063 0.107718796 -0.042460363 0.001204604
-0.009878728 0.058114786 -0.055638794 -0.076155886 0.107849486 -0.021793319 -0.119435646 0.13332418
0.09171879 -0.04435856 -0.044201065 0.10690056 0.10284751 0.05919924 -0.098228835 0.002775239
-0.07146305 -0.028407373 0.094739944 -0.1300342 0.120618224 -0.03830731 -0.0542185 -0.05509241
0.08621027 -0.033713892 -0.07609026 0.12038773 0.114460066 -0.09477166 0.10958663 0.04165304
0.087122865 -0.09888654 -0.0015113527 0.0893748 0.003262643 -0.01948107 0.00032646357 -0.063887134
-0.032685816 -0.08228775 0.10859926 -0.0639754 0.031554192 0.0066000903 -0.04322441 -0.007714469
0.016945563 -0.09377726 0.08105718 0.120054476 -0.104888715 0.121646196 0.07289992 0.07551378
-0.09232568 -0.085866384 -0.06712434 -0.02988962 -0.07773486 -0.102110855 0.0045340178 0.06818221
-0.080464326 0.058034174 -0.016457 0.12058508 0.021993857 -0.092282414 -0.075929835 -0.043049328
0.076810576 -0.109401576 0.020414503 0.111238174 -0.08618174 -0.07837065 -0.08067916 -0.063050725
-0.10134693 0.034977846 0.066764526 0.12991558 -0.058195543 0.0072308127 0.13361922 -0.110971175
-0.06678415 0.07254504 -0.06874875 -0.083054915 0.1010189 0.075093895 0.05676453 0.026916685
0.028800488 0.050768387 -0.07960524 0.044198103 -0.02832262 -0.060343415 -0.014549979 0.065632895
00000000: 39e1 12bd 78e9 95bd 5028 9dbd 702b 41bd
00000010: cc23 c7bd cdbf 533d cfd8 34bc 2f74 c93c
00000020: fe6d cebd 8666 c33c ce6f f2bd 69b7 8ebd
00000030: 9fa9 1b3c 81dc c6bc 9c20 c53d 83a4 02be
00000040: 3d6e 0a3c f369 ad3d b9b1 ecbd 871d 88bd
00000050: 4682 993d 28ae a7bd e75d d0bc 5c04 7dbd
00000060: ad43 74bd e78e f3bd c6f7 9f3d ec50 07bd
00000070: 8404 72bd eb8c 07bd 205a dabd df58 933d
00000080: a4fa 023e 7f0b e53d 87d5 ee3d bd56 f53d
00000090: 1c12 cc3d 3dfb 9f3d 717c 5bbd 0f38 f4bc
000000a0: a4a4 bbbd 32e1 b0bd 5bbf c73d eecc b93d
000000b0: 74f0 fa3d 5f1e 013e 9230 b5bd b324 083e
000000c0: 01fa 78bd b6fb d33d 2768 923d b87b d93b
000000d0: 2a63 dcbc 78a5 e4bd feb8 efbd 0c61 d13b
000000e0: 08d0 22bd b25a 073e 907b 8bbd b104 dabd
000000f0: 38e0 a3bd 6c74 d83d 5378 0fbd de66 8a3d
00000100: c535 5fbd 3f5e f23d 3b67 06be 3ef3 0a3e
00000110: d0e6 a3bd 8d25 f6bd 142a 493d b78b 963d
00000120: 3f48 50bd f3a7 d9bd 9ce9 603d 7ab4 bfbd
00000130: d8ee 03be 6d62 f8bd 7d24 b5bd d91c c8bd
00000140: 1c01 f1bd ab59 6d3c c001 563d e11b 68bd
00000150: d9f4 f83d 396c 64bc d70f 693a deed 9dbd
00000160: d5fc cd3d 1333 e13d 8029 df3d 4fde b43d
00000170: 5e94 d8bd ebd8 08be ef29 943d f194 023e
00000180: 89d0 88bc 7d2d 013e 6046 083e 0efd 873d
00000190: ffc0 cebd e8d8 7dbd 44ac e1bd 15a0 69bd
000001a0: 37a0 96bd 22cf e73d 90c0 30bd 3ca5 ecbc
000001b0: 7cb2 1e3d 8368 06bd 4c21 bd3d 1a7a acbd
000001c0: 36cc bdbb 078c 87bd bd0a ccbd b222 813d
000001d0: cd00 0d3c 6312 9a3d b8dc 41bd 9a8d a33d
000001e0: a2bd d13d 9db0 d5bd b8ed f1bd a741 b3bd
000001f0: 132a c9bc f84f a7bc 4b9f 7d3d 8586 51bc
00000200: 604a c6bd cd83 66bd 0ad7 55bc 608f a6bd
00000210: d1a7 0a3e e89c e93c efba c6bd 0e9c cf3d
00000220: 40af a13d 2da2 b33c 2100 bc3b 15b1 b0bd
00000230: c9c1 0dbd 2cfa 5dbd 2723 2f3c 6b1a d7bd
00000240: 5604 e2bb 74e4 05be b498 5cbd e6c8 f93d
00000250: b1c9 8e3d ac9b dc3d ebea 2dbd cee3 9d3a
00000260: 63da 21bc c509 6e3d 81e5 63bd 9ef7 9bbd
00000270: 31e0 dc3d e787 b2bc ad9a f4bd 2286 083e
00000280: 10d7 bb3d 52b1 35bd 2d0c 35bd aeee da3d
00000290: b7a1 d23d e77a 723d 332c c9bd c9e0 353b
000002a0: 385b 92bd 94b6 e8bc 0407 c23d af27 05be
000002b0: b006 f73d 20e8 1cbd 3814 5ebd 94a8 61bd
000002c0: 038f b03d 9417 0abd 36d5 9bbd d88d f63d
000002d0: 0a6a ea3d a517 c2bd f46e e03d 619c 2a3d
000002e0: 796d b23d 0785 cabd 9518 c6ba 230a b73d
000002f0: 11d2 553b c496 9fbc 3329 ab39 42d7 82bd
00000300: 90e1 05bd 7b86 a8bd 4a69 de3d 8905 83bd
00000310: f83e 013d 9245 d83b 140c 31bd a8c9 fcbb
00000320: 6cd1 8a3c 4b0e c0bd 4f01 a63d 1fdf f53d
00000330: e5cf d6bd a421 f93d 8e4c 953d f8a6 9a3d
00000340: 3f15 bdbd b7da afbd 7c78 89bd 14db f4bc
00000350: 7433 9fbd 7f1f d1bd 1992 943b 1da3 8b3d
00000360: 7bca a4bd 3eb5 6d3d d5d0 86bc 4ff5 f63d
00000370: 762c b43c 90fe bcbd 1a81 9bbd 7e54 30bd
00000380: dd4e 9d3d ef0d e0bd 513c a73c d7d0 e33d
00000390: 0d80 b0bd cb80 a0bd 1e3b a5bd bd20 81bd
000003a0: fb8e cfbd ee44 0f3d d7bb 883d 9708 053e
000003b0: 735e 6ebd 74f0 ec3b 7ad3 083e db44 e3bd
000003c0: 21c6 88bd 7e92 943d 25cc 8cbd b218 aabd
000003d0: ffe2 ce3d d4ca 993d ec81 683d 6180 dc3c
000003e0: 00ef eb3c 83f2 4f3d 1208 a3bd 1209 353d
000003f0: d704 e8bc a82a 77bd 0963 6ebc 8a6a 863d

conv2.bias f4 [16]
-0.05962688 0.13596593 -0.092149 -0.10445363 0.045661345 -0.030038306 -0.033410624 -0.04141699
-0.043982096 -0.0042740135 -0.1001022 -0.12656125 0.12328321 0.04366501 -0.06646741 -0.06780867
00000000: 513b 74bd a73a 0b3e 9db8 bcbd c9eb d5bd
00000010: 6407 3b3d e512 f6bc 94d9 08bd dda4 29bd
00000020: 9226 34bd 060d 8cbb 6202 cdbd 4699 01be
00000030: e87b fc3d 15da 323d 1120 88bd 46df 8abd

fc1.weight f4 [120, 576]
0.008136898 0.014335662 0.021128524 0.031874273 -0.008674834 0.03900424 -0.010291364 0.026016865
-0.012839835 -0.0038348325 0.0005758852 -0.007442817 -0.012180984 0.031094026 -0.039767385 0.02855603
0.030975763 -0.018620383 -0.017190358 0.005856242 -0.008661091 0.0027163438 -0.040086895 -0.010732081
0.02776206 -0.01892462 -0.020355886 -0.038024336 -0.007158611 -0.013847506 0.023877058 -0.00085419416
-0.039961092 -0.022501484 -0.009450708 0.021891419 0.024818365 -0.016511586 0.017415702 0.032186534
0.021698464 -0.030079877 0.023914475 0.02690157 0.0038735904 -0.0259177 -0.036745712 -0.039498888
0.008228909 0.02615865 0.0071131177 0.03560296 0.03693622 -0.038689107 0.03857659 -0.0415058
-0.028962335 -0.004631955 -0.011202589 0.027520511 -0.011497751 0.0012114383 -0.027336817 0.024577428
0.011601809 0.037366647 0.0030187182 0.01349223 0.033808794 -0.031232646 0.03873234 -0.013931369
0.032835882 0.006061673 -0.006120693 -0.015658146 -0.014224401 -0.019947171 -0.0148352645 -0.010993471
0.03609929 -0.0073157363 0.023471806 0.03974401 -0.02249533 -0.037772935 -0.014310017 0.022464294
-0.025361251 -0.02167824 -0.027609875 0.018094126 -0.004424747 -0.010804504 -0.013292542 0.006938096
-0.02612189 -0.01710999 0.019024212 -0.001854863 0.022853311 -0.0016210191 -0.022952005 0.01854268
-0.018388372 0.04014444 0.017383631 -0.004761398 0.03648029 0.011707339 -0.016939547 -0.031554457
0.019315232 -0.0405299 0.030497659 0.017473172 -0.011058247 0.030954141 0.016225863 -0.0032067187
-0.039586376 -0.040215023 0.0012550242 -0.036753133 0.022194792 -0.014984351 0.023813087 0.009715632
-0.038942903 0.033393953 0.035862524 0.027879845 0.024902295 -0.0012708716 -0.0076958686 -0.027382713
-0.02317216 0.014022678 0.031112377 -0.03732638 -0.0023680218 -0.011567166 -0.007371191 0.037308354
-0.0059363693 -0.022582805 -0.017350346 -0.04058039 0.021120768 -0.024364632 0.033473942 -0.01202872
0.027447868 0.029622514 0.007532675 0.02087899 -0.005728632 -0.03451593 -0.014839893 -0.03760941
-0.0041166097 0.040150966 0.024806801 0.027516637 -0.029374128 -0.03608234 0.013563842 0.022551347
0.010143738 -0.011315724 -0.04080067 0.030325066 -0.041403532 -0.029239377 0.031139132 -0.009504352
-0.02991051 -0.019074738 -0.039099332 -0.028686058 -0.04029666 0.032822628 -0.01028249 -0.014075076
-0.03841078 -0.012897676 0.017257363 -0.040415015 -0.033003785 -0.023934126 0.037159223 -0.026139533
-0.013993319 -0.034101583 -0.007677406 0.039518643 -0.02226035 -0.017219638 0.013831958 -0.0062529184
0.031728465 -0.02667675 -0.020234838 -0.038322546 -0.032484293 -0.015191376 -0.029349213 -0.031372063
-0.04094749 -0.016152909 -0.007724669 -0.015373018 -0.0024973415 -0.006959375 0.016435567 -0.015724739
-0.030171117 -0.0034704916 -0.030758044 0.036940012 0.014716182 -0.022408074 -0.0012211502 -0.03521385
-0.015397718 0.031949837 0.031189892 -0.0001550056 0.017959263 -0.0055567324 0.018305391 0.006908659
-0.02803215 -0.030311435 -0.013213512 0.039760087 -0.0055456124 0.01846565 0.033842836 0.013426948
0.032497484 0.018889356 -0.008880246 -0.016657641 0.027881067 -0.024158116 -0.010070149 -0.033801295
-0.037905157 0.026150044 -0.008527469 -0.0071035735 -0.03239469 -0.03170879 -0.035805076 0.002484858
00000000: a050 053c 20e0 6a3c ba15 ad3c 998e 023d
00000010: e420 0ebc e9c2 1f3d 1c9d 28bc 5221 d53c
00000020: 2c5e 52bc d051 7bbb 00f7 163a e0e2 f3bb
00000030: c092 47bc e6b8 fe3c 20e3 22bd 56ee e93c
00000040: e2c0 fd3c c689 98bc cbd2 8cbc b8e5 bf3b
00000050: 40e7 0dbc b004 323b 2832 24bd 9cd5 2fbc
00000060: 426d e33c ce07 9bbc 63c1 a6bc 68bf 1bbd
00000070: c892 eabb a6e0 62bc d299 c33c 00ec 5fba
00000080: 3eae 23bd 0855 b8bc 24d7 1abc a255 b33c
00000090: e24f cb3c 4e43 87bc 60ab 8e3c 07d6 033d
000000a0: fac0 b13c 136a f6bc 4ae8 c33c ae60 dc3c
000000b0: 10dc 7d3b 5b51 d4bc ac82 16bd 96c9 21bd
000000c0: 8cd2 063c aa4a d63c 2815 e93b 69d4 113d
000000d0: 6f4a 173d 7878 1ebd 7d02 1e3d fc01 2abd
000000e0: 6b42 edbc a8c7 97bb 108b 37bc b272 e13c
000000f0: 1061 3cbc 20c9 9e3a 76f1 dfbc 9a56 c93c
00000100: 8415 3e3c c50d 193d b0d5 453b 840e 5d3c
00000110: 177b 0a3d 9bdb ffbc cda5 1e3d 6640 64bc
00000120: eb7e 063d 00a1 c63b 1890 c8bb 8345 80bc
00000130: 760d 69bc 4068 a3bc 9c0f 73bc f61d 34bc
00000140: d9dc 133d d8b8 efbb f247 c03c 9dca 223d
00000150: 2048 b8bc cbb7 1abd 9074 6abc 0a07 b83c
00000160: 66c2 cfbc 9096 b1bc 1b2e e2bc 223a 943c
00000170: 78fd 90bb 6005 31bc f6c8 59bc f858 e33b
00000180: 93fd d5bc 402a 8cbc aad8 9b3c e01e f3ba
00000190: de36 bb3c 6078 d4ba d805 bcbc d2e6 973c
000001a0: 36a3 96bc 7f6e 243d 1e68 8e3c 8005 9cbb
000001b0: 5b6c 153d 24d0 3f3c cec4 8abc 3f3f 01bd
000001c0: fa3a 9e3c ae02 26bd 3ad6 f93c e623 8f3c
000001d0: a62d 35bc 8a93 fd3c 1aec 843c d027 52bb
000001e0: 5325 22bd 82b8 24bd a07f a43a 748a 16bd
000001f0: dad1 b53c ec80 75bc aa13 c33c 502e 1f3c
00000200: 9882 1fbd 19c8 083d 95e4 123d 4664 e43c
00000210: e6ff cb3c 6093 a6ba a02d fcbb b651 e0bc
00000220: 8bd3 bdbc 60bf 653c 62df fe3c 8ce3 18bd
00000230: d030 1bbb 3684 3dbc 088a f1bb a5d0 183d
00000240: e085 c2bb 93ff b8bc 5022 8ebc 9f37 26bd
00000250: 7605 ad3c 5698 c7bc f91b 093d 1c14 45bc
00000260: 5ada e03c eaaa f23c a8d4 f63b 6a0a ab3c
00000270: 40b7 bbbb 9360 0dbd 0623 73bc 530c 1abd
00000280: a0e4 86bb 5775 243d a237 cb3c 926a e13c
00000290: 03a2 f0bc 13cb 13bd e03a 5e3c 9abd b83c
000002a0: ec31 263c 9665 39bc 9a1e 27bd 466c f83c
000002b0: c096 29bd 6b87 efbc 7e17 ff3c 24b8 1bbc
000002c0: e306 f5bc a042 9cbc 9f26 20bd 06ff eabc
000002d0: 1c0e 25bd 0571 063d e477 28bc 269b 66bc
000002e0: 9f54 1dbd c650 53bc 505f 8d3c 378a 25bd
000002f0: fa2e 07bd 8011 c4bc 4534 183d 9322 d6bc
00000300: 3c44 65bc 1aae 0bbd c092 fbbb 4dde 213d
00000310: 565b b6bc 3310 8dbc 709f 623c 48e5 ccbb
00000320: b5f5 013d 3389 dabc 88c3 a5bc 1af8 1cbd
00000330: 400e 05bd 40e5 78bc c36d f0bc fe7f 00bd
00000340: 8eb8 27bd 1b53 84bc 381f fdbb 1cdf 7bbc
00000350: 70aa 23bb 780b e4bb e2a3 863c 2bd1 80bc
00000360: 6b29 f7bc 3071 63bb 4bf8 fbbc 694e 173d
00000370: 241c 713c 2391 b7bc 000f a0ba 663c 10bd
00000380: b646 7cbc d5dd 023d f281 ff3c 0089 22b9
00000390: 4e1f 933c 4015 b6bb 30f5 953c 0862 e23b
000003a0: aea3 e5bc b04f f8bc 7c7d 58bc 79db 223d
000003b0: f8b7 b5bb 4645 973c c99e 0a3d b4fc 5b3c
000003c0: 151c 053d dabd 9a3c 747e 11bc 9b75 88bc
000003d0: d666 e43c 3ee7 c5bc 44fd 24bc 3a73 0abd
000003e0: 7042 1bbd 9e38 d63c ccb6 0bbc 18c5 e8bb
000003f0: 4bb0 04bd 14e1 01bd 58a8 12bd 00d9 223b

fc1.bias f4 [120]
0.040378008 -0.033770315 0.038377438 -0.03875134 0.001137048 0.021443477 0.04076707 0.035894316
0.015410347 -0.029436912 -0.029480195 0.034270737 0.0034108395 0.018722687 0.025714416 -0.035003148
-0.008366976 0.029264716 -0.036749363 0.033180065 0.0066585727 -0.037453152 -0.0258455 -0.033176612
0.0036363415 0.0063031623 -0.0078676455 0.016791862 -0.01596255 0.032667767 -0.011684349 -0.0063486695
-0.0038945414 0.009360727 0.028345916 0.03894975 0.034651924 0.017095136 -0.008816952 0.027286056
-0.041096628 -0.007354278 -0.039921056 -0.022976613 -0.01915297 -0.0021218657 0.00923592 0.02469081
-0.024732277 0.037963245 0.025396366 -0.01407056 -0.033578604 0.027876984 -0.0017118553 -0.026064038
-0.02761899 0.021326719 -0.0079141855 -0.028250009 0.00018012087 0.017815657 -0.034900963 -0.03719094
0.020406336 -0.024142414 0.020029193 -0.018926885 0.01915853 -0.019489542 0.035705272 0.03441396
0.0014766939 -0.0022181687 0.005400867 0.03741823 0.004289095 0.014607888 -0.0038529492 0.021942694
0.013336465 -0.030860823 -0.011558719 0.0024323165 -0.013160199 0.00045724586 -0.0051645343 -0.022831082
0.005496877 0.009149802 0.02913623 0.0049810074 -0.014107224 0.0023830847 0.029447738 -0.029496506
0.018089395 0.0041389205 -0.016217068 0.022263303 0.040631026 0.0069586746 -0.03692887 -0.0029631145
0.014971498 -0.033323172 -0.014448946 0.0018832936 -0.02025061 -0.0090261 -0.003242623 0.023739047
-0.0010738559 0.021755446 -0.0116353 0.016901355 -0.032540783 -0.038131066 0.003806816 -0.039164465
00000000: 6963 253d be52 0abd a931 1d3d bab9 1ebd
00000010: 0009 953a 3baa af3c 5ffb 263d eb05 133d
00000020: ae7b 7c3c ae25 f1bc 7380 f1bc 795f 0c3d
00000030: 6488 5f3b 5260 993c 0aa7 d23c 765f 0fbd
00000040: a415 09bc 8fbc ef3c 8086 16bd d2e7 073d
00000050: 2830 da3b 7a68 19bd f1b9 d3bc 33e4 07bd
00000060: b04f 6e3b c28a ce3b 4ce7 00bc 168f 893c
00000070: e5c3 82bc a3ce 053d b66f 3fbc 8008 d0bb
00000080: 903b 7fbb bc5d 193c b235 e83c c689 1f3d
00000090: 2def 0d3d 190b 8c3c fa74 10bc 0287 df3c
000000a0: f054 28bd 28fc f0bb 4384 23bd 7339 bcbc
000000b0: b0e6 9cbc 000f 0bbb 4252 173c 6244 ca3c
000000c0: 589b cabc 597f 1b3d 0a0c d03c 3588 66bc
000000d0: b889 09bd 465e e43c 5560 e0ba 4084 d5bc
000000e0: 3841 e2bc 5fb5 ae3c 80aa 01bc 906c e7bc
000000f0: d4de 3c39 24f2 913c 50f4 0ebd 8755 18bd
00000100: 302b a73c 50c6 c5bc 4314 a43c 8e0c 9bbc
00000110: 59f2 9c3c 88a8 9fbc b13f 123d a7f5 0c3d
00000120: a08d c13a b25e 11bb c2f9 b03b dc43 193d
00000130: 898b 8c3b ec55 6f3c c381 7cbb 2ac1 b33c
00000140: 3081 5a3c d6cf fcbc c860 3dbc 8067 1f3b
00000150: e09d 57bc 80ba ef39 413b a9bb 4008 bbbc
00000160: 251f b43b 0de9 153c 1aaf ee3c b837 a33b
00000170: fc21 67bc 872d 1c3b 623c f13c a8a2 f1bc
00000180: 3630 943c c89f 873b a8d9 84bc 8861 b63c
00000190: b86c 263d 9805 e43b ba42 17bd d030 42bb
000001a0: 044b 753c e17d 08bd 46bb 6cbc d9d8 f63a
000001b0: 9be4 a5bc 35e2 13bc 3082 54bb 6478 c23c
000001c0: a0c0 8cba 7a38 b23c fca1 3ebc b674 8a3c
000001d0: 7c49 05bd 522f 1cbd c67b 793b eb6a 20bd

fc2.weight f4 [84, 120]
-0.07458208 -0.01607816 0.06399124 0.07249768 0.044641435 -0.046240967 -0.089456975 0.0770479
0.056295235 -0.057430133 -0.008545436 0.07645705 0.07402828 0.08408911 0.01030802 -0.021350555
-0.02700682 -0.0815957 -0.0069096824 -0.030155761 0.0072508752 0.011814468 0.03654139 0.083150804
0.08951375 0.07570178 0.084552854 0.075387985 0.0071930843 -0.07552019 -0.04243021 -0.056978658
-0.030010786 -0.029512811 0.07908735 0.045433585 -0.004923299 -0.07045666 0.04504693 0.0040371567
-0.09071069 0.06776774 0.053395126 -0.01771304 -0.04223695 -0.08483036 -0.07721696 0.08256458
-0.009781363 -0.06326523 0.023443073 0.0049119885 0.08137299 -0.075161755 0.01773732 -0.016123988
-0.06702612 -0.0410931 0.032845452 -0.06865909 0.08661956 0.06162959 0.029720781 0.01541513
0.0355296 0.07653783 -0.037023947 0.076016635 -0.042486537 0.06593847 -0.02609184 0.039588124
0.065367445 0.04217785 -0.014951092 0.03294981 -0.0583718 0.041326728 -0.016882546 -0.060357865
0.024258852 -0.028033271 -0.068828754 -0.029045254 -0.082178466 0.00955312 0.06692628 0.0808277
-0.024696527 0.023086006 -0.05106616 0.020044453 0.059874132 0.088219225 -0.062959954 -0.04723981
-0.08850929 -0.07915406 0.078632295 -0.014804324 0.013784669 -0.08811335 0.077396624 0.070788294
0.039614186 0.07073775 0.01235164 0.053820517 -0.0019115582 0.012838387 -0.011896387 -0.061736617
-0.08606417 -0.012993932 0.04874764 -0.021987155 0.051375166 0.039590273 0.06807709 -0.08141601
0.08438985 -0.0537727 0.020123081 0.07436751 0.027024955 0.0023977424 -0.0630656 -0.06573236
0.026497032 -0.046146896 -0.0068920553 -0.07269682 -0.08367854 0.009332204 0.07963984 0.030838944
0.06520516 -0.043611623 -0.04548713 -0.04901227 0.0036780313 0.05357185 0.06578207 -0.080811694
-0.031439986 0.026964009 0.03850557 0.044528358 0.03476679 -0.0036479756 0.081441164 0.012961134
-0.04606607 -0.01565905 0.071221754 0.005777915 0.0442138 0.07569177 0.0027586713 -0.07910393
-0.08912857 -0.083219215 0.03597145 0.061549544 -0.011534847 0.05324982 -0.009435271 -0.02044443
-0.04574027 0.035224736 -0.084146224 0.07623706 0.05273865 -0.023068778 0.021120846 -0.010119565
0.03789158 -0.017590476 0.07737911 -0.07941406 -0.023590613 -0.08431592 -0.003862218 0.026441846
0.014013566 -0.07338172 0.08408002 0.0778393 0.0053871167 0.054971516 0.073136 0.05351375
0.07511403 -0.0129632875 0.016864557 0.05152539 -0.07607714 -0.040573593 0.07464957 -0.044219796
0.06391816 -0.066020936 -0.052843466 -0.039466977 -0.07112868 0.009192131 0.0653497 -0.026530169
0.051198952 -0.0719894 0.06884846 0.04142198 0.090247765 -0.024293434 -0.050932776 -0.08511397
-0.05284159 -0.03332857 0.033425927 -0.06055338 0.031060154 0.014966421 -0.08084983 -0.015596665
-0.075810656 0.018462336 0.03291513 0.02420563 -0.070016205 0.07715753 -0.005888365 -0.03613193
0.047380686 -0.09044882 -0.04078577 -0.008651793 -0.08670619 -0.05347829 0.07747545 0.017758481
0.06981388 -0.075114466 -0.052254252 0.07040545 -0.067497484 -0.055818923 0.07291304 -0.0043091923
0.0013259733 0.07371868 0.06942786 0.014139831 0.022926727 0.043264277 -0.06288068 0.031237938
00000000: 7dbe 98bd 58b6 83bc d70d 833d aa79 943d
00000010: f0d9 363d 2b67 3dbd 3835 b7bd 4acb 9d3d
00000020: d595 663d dc3b 6bbd 2802 0cbc 8495 9c3d
00000030: 249c 973d e936 ac3d f8e2 283c 5ce7 aebc
00000040: 683d ddbc a51b a7bd 9e6a e2bb 3709 f7bc
00000050: c098 ed3b 7891 413c 6dac 153d f84a aa3d
00000060: fc52 b73d 8909 9b3d 0c2a ad3d 0465 9a3d
00000070: f7b3 eb3b 54aa 9abd 4dcb 2dbd 7462 69bd
00000080: 2ed9 f5bc dac4 f1bc 8cf8 a13d 9118 3a3d
00000090: a053 a1bb 954b 90bd 2183 383d 204a 843b
000000a0: 87c6 b9bd d0c9 8a3d d9b4 5a3d f01a 91bc
000000b0: a700 2dbd 8abb adbd ed23 9ebd 9e17 a93d
000000c0: 0342 20bc 3391 81bd b00b c03c bff4 a03b
000000d0: e2a6 a63d 68ee 99bd db4d 913c 7416 84bc
000000e0: fe44 89bd 3d51 28bd f488 063d 239d 8cbd
000000f0: 9965 b13d 4f6f 7c3d ff78 f33c be8f 7c3c
00000100: 7c87 113d debf 9c3d 6ca6 17bd 9cae 9b3d
00000110: 5d06 2ebd c00a 873d 8ebe d5bc 2827 223d
00000120: 5edf 853d aec2 2c3d 6df5 74bc 61f6 063d
00000130: 4517 6fbd 3746 293d 444d 8abc cf39 77bd
00000140: 80ba c63c 08a6 e5bc 17f6 8cbd 50f0 edbc
00000150: 2f4d a8bd b084 1c3c a510 893d fe88 a53d
00000160: 5f50 cabc dd1e bd3c c02a 51bd 4434 a43c
00000170: 943e 753d 48ac b43d 26f1 80bd 887e 41bd
00000180: 5c44 b5bd 861b a2bd f809 a13d d68d 72bc
00000190: 18d9 613c c674 b4bd 1f82 9e3d 74f9 903d
000001a0: 7c42 223d f4de 903d 885e 4a3c e772 5c3d
000001b0: 408d faba 1958 523c 10e9 42bc 89df 7cbd
000001c0: 6942 b0bd 80e4 54bc 9bab 473d 681e b4bc
000001d0: c46e 523d 6929 223d 006c 8b3d 70bd a6bd
000001e0: 96d4 ac3d c340 5cbd 29d9 a43c fe4d 983d
000001f0: 7063 dd3c 7123 1d3b 8a28 81bd b09e 86bd
00000200: 4e10 d93c 8704 3dbd c0d6 e1bb 12e2 94bd
00000210: a85f abbd 1ae6 183c 361a a33d f4a1 fc3c
00000220: 488a 853d 1aa2 32bd b650 3abd 17c1 48bd
00000230: 200b 713b 286e 5b3d c0b8 863d 9a80 a5bd
00000240: 37c7 00bd a0e3 dc3c 04b8 1d3d 5e63 363d
00000250: 9f67 0e3d e012 6fbb a0ca a63d f05a 543c
00000260: c7af 3cbd 6847 80bc b6dc 913d aa54 bd3b
00000270: 8819 353d 4904 9b3d d3ca 343b 3e01 a2bd
00000280: 0a89 b6bd d66e aabd cd56 133d 601b 7c3d
00000290: a8fc 3cbc 7c1c 5a3d 6596 1abc 147b a7bc
000002a0: 265a 3bbd d047 103d db54 acbd 2d22 9c3d
000002b0: 7c04 583d bcfa bcbc a005 ad3c 88cc 25bc
000002c0: 3434 1b3d e719 90bc f078 9e3d d7a3 a2bd
000002d0: 1a41 c1bc d3ad acbd 441d 7dbb 929c d83c
000002e0: 2899 653c 2849 96bd 2532 ac3d 366a 9f3d
000002f0: 6986 b03b d029 613d 54c8 953d 3c31 5b3d
00000300: 62d5 993d f863 54bc 8a27 8a3c 4a0c 533d
00000310: 55ce 9bbd 7f30 26bd e0e1 983d d11f 35bd
00000320: 86e7 823d fc35 87bd 6472 58bd 20a8 21bd
00000330: eaab 91bd 989a 163c 10d6 853d cc55 d9bc
00000340: feb5 513d 2e6f 93bd 6c00 8d3d 18aa 293d
00000350: d2d3 b83d 0603 c7bc e39e 50bd 3c50 aebd
00000360: 6c70 58bd 8a83 08bd a0e9 083d d206 78bd
00000370: dd71 fe3c b835 753c 9894 a5bd 2889 7fbc
00000380: 9e42 9bbd 533e 973c 04d2 063d e34a c63c
00000390: a864 8fbd c404 9e3d 30f3 c0bb 13ff 13bd
000003a0: 4012 423d 3b3d b9bd fb0e 27bd 40c0 0dbc
000003b0: 0493 b1bd 0d0c 5bbd 73ab 9e3d 3c7a 913c
000003c0: 94fa 8e3d 9dd5 99bd 8e08 56bd bc30 903d
000003d0: 1f3c 8abd 62a2 64bd 6f53 953d 2034 8dbb
000003e0: 48cc ad3a d2f9 963d 3230 8e3d c0aa 673c
000003f0: d5d0 bb3c e235 313d 96c7 80bd b4e6 ff3c

fc2.bias f4 [84]
0.052491568 0.034497783 0.089749575 -0.038884025 -0.0275205 0.060688004 -0.06009013 0.07001053
-0.008923732 0.022921482 0.05677574 0.014547729 -0.036027983 0.07802541 0.027477598 -0.009810619
0.0293663 0.061588913 -0.08182631 0.00013784564 0.0626013 -0.02591985 0.014777095 0.010620468
0.0807366 0.039672762 -0.07779839 -0.012062542 -0.054664943 0.030249927 -0.04807162 -0.070854105
0.0137625355 0.07171208 -0.020769704 0.061336607 -0.051567603 -0.07934084 0.08271173 -0.0908961
0.049708784 -0.0365666 -0.06449125 0.0057960823 -0.015367135 -0.06342365 0.01428704 -0.005455977
-0.017596902 0.031889975 -0.08705575 -0.08487404 -0.044230636 -0.019165397 0.02798194 -0.049118843
-0.024086552 0.072168075 -0.06730835 -0.06494065 -0.024148468 0.04244499 -0.037590764 -0.010348588
-0.028698217 -0.03613153 -0.08161386 0.016673587 0.01687102 0.07173148 -0.054232854 -0.088114016
-0.0720406 -0.044575058 0.040428583 -0.060061518 0.028530993 -0.08695099 0.029342378 0.002075985
0.056722686 -0.040952004 0.052798152 0.022772152
00000000: 6601 573d 8c4d 0d3d a0ce b73d db44 1fbd
00000010: ac72 e1bc fc93 783d 1121 76bd ae61 8f3d
00000020: d834 12bc d5c5 bb3c ae8d 683d 9959 6e3c
00000030: 1492 13bd c9cb 9f3d b318 e13c b8bc 20bc
00000040: 9891 f03c a844 7c3d 8d94 a7bd a88a 1039
00000050: 1c35 803d de55 d4bc a11b 723c 7901 2e3c
00000060: 3b59 a53d e87f 223d c354 9fbd f8a1 45bc
00000070: 59e8 5fbd b2ce f73c bfe6 44bd f51b 91bd
00000080: 427c 613c c8dd 923d 3a25 aabc 183c 7b3d
00000090: 8d38 53bd 737d a2bd c464 a93d bc27 babd
000000a0: 709b 4b3d dcc6 15bd fd13 84bd 10ed bd3b
000000b0: 70c6 7bbc 42e4 81bd 3014 6a3c 0dc8 b2bb
000000c0: 6127 90bc 109f 023d 494a b2bd 71d2 adbd
000000d0: 2f2b 35bd c000 9dbc 623a e53c d730 49bd
000000e0: 2951 c5bc dbcc 933d f6d8 89bd 9aff 84bd
000000f0: 02d3 c5bc ccda 2d3d c6f8 19bd 208d 29bc
00000100: 8618 ebbc a8fe 13bd 2b25 a7bd 0c97 883c
00000110: 1835 8a3c f4e7 923d 4523 5ebd 1f75 b4bd
00000120: 068a 93bd 5694 36bd 7198 253d 1103 76bd
00000130: d4b9 e93c 5c13 b2bd 6d5f f03c 400d 083b
00000140: 0c56 683d 4abd 27bd e042 583d aa8c ba3c

fc3.weight f4 [10, 84]
0.07927397 -0.01562851 0.06605081 0.055695884 -0.09282008 0.053013317 -0.046841208 0.08490909
0.0585827 0.10305011 -0.073017426 -0.07518803 -0.04840885 -0.015717098 0.09877931 0.0022389516
0.07738042 0.052741073 0.092349455 0.09999713 0.050176688 -0.07240949 -0.08374807 0.10921397
-0.073597915 -0.09473825 0.06425767 0.06821255 -0.058945403 0.07748839 0.023317553 0.022169935
-0.005757029 0.10831497 -0.0819034 -0.059131242 -0.0005850196 -0.030790128 0.096994616 0.106558405
0.038422532 0.09702439 -0.005365239 -0.045638144 0.052638255 -0.07537112 0.08049915 0.018680224
-0.06565268 -0.10249486 0.056587655 -0.0826225 -0.026823483 0.10637913 -0.087102875 -0.028543346
-0.035282277 0.02841212 0.030259736 0.031193085 0.0005965098 0.08652207 -0.022487521 0.04132434
-0.03363547 0.10608126 0.086070664 -0.05136128 -0.010208972 -0.06024656 0.10423448 -0.012824513
-0.0468198 -0.10426297 0.08485356 0.019232087 -0.05616651 0.059297405 -0.07868864 -0.045868665
-0.08275221 -0.039826233 -0.0626708 -0.02739541 -0.042912252 0.097082675 0.039055962 0.047517397
0.07543578 -0.02495768 -0.08934356 0.050335072 -0.064852774 0.08432124 -0.0721892 0.069663025
0.02622848 0.10650783 -0.029870974 -0.07030793 -0.0960982 -0.028163962 0.02686106 -0.05428404
0.10025928 0.062150262 -0.009013068 0.021963725 0.056149825 -0.028700113 0.0114800455 0.09756435
-0.018153965 0.017089233 -0.049117137 0.10638042 -0.023473911 -0.033480637 -0.068894126 0.08871112
0.048073195 -0.046077058 -0.103711694 0.049665354 -0.086328074 0.022229783 -0.04502889 -0.10492877
-0.10582797 -0.015306912 0.04767052 -0.06636181 0.037438672 0.094023846 -0.0516021 0.04733809
0.0015671104 -0.039578415 0.02584818 0.0785721 0.084212855 -0.086467445 -0.10404146 -0.09351161
-0.07832889 0.07851646 0.10391379 0.06273689 0.09922497 -0.0524349 0.095069446 0.022769209
-0.019172557 -0.06450478 -0.012243226 -0.089403175 -0.057584617 -0.06499701 0.08283727 0.05392664
-0.07658898 0.048140176 0.06680179 -0.005210638 -0.0068891165 0.07785723 0.017935865 0.10383814
0.038017485 0.03976438 -0.076002106 0.10292407 -0.07998644 -0.025146022 -0.09040159 -0.080734536
-0.08585144 0.07377805 -0.07705235 -0.103465304 -0.020519748 0.026374087 -0.002044101 0.056114487
0.03716137 -0.0694734 0.068378866 0.090576276 0.07924233 -0.10255716 0.0060658795 0.06947068
-0.09366892 -0.009874076 0.096698396 -0.023203418 0.038773578 -0.02477143 -0.008053578 -0.053396814
-0.05330562 -0.0625778 -0.08040069 0.048431516 -0.07056713 -0.037623316 -0.032378506 0.10658594
-0.03193573 0.10447282 -0.10320056 0.06428968 -0.06531578 0.0009651929 0.023831852 -0.0037154395
0.02431434 -0.049587738 -0.03841299 -0.02280426 0.04220476 0.022536404 0.0050226916 -0.10814413
0.007526706 0.033907242 0.04633949 0.07981498 -0.087137416 0.016071651 -0.009289622 0.06621345
0.014591366 0.04590707 0.024665438 -0.041698705 -0.01917664 0.037884705 0.08879141 -0.06247611
0.0083686635 -0.045195304 0.089032084 -0.076919034 0.028059267 -0.021767385 0.049644466 0.0550055
0.033532895 -0.07557819 0.060366087 -0.032965165 0.013595257 -0.08633704 -0.09829241 0.019650914
00000000: 645a a23d 5c07 80bc a645 873d 5e21 643d
00000010: 7418 bebd 7e24 593d 91dc 3fbd d1e4 ad3d
00000020: 6af4 6f3d f00b d33d 298a 95bd 2ffc 99bd
00000030: 5c48 46bd 25c1 80bc cf4c ca3d 60bb 123b
00000040: a079 9e3d 0607 583d b621 bd3d 4ccb cc3d
00000050: 1286 4d3d 6d4b 94bd 1c84 abbd 93ab df3d
00000060: 81ba 96bd 2106 c2bd 8699 833d 05b3 8b3d
00000070: bc70 71bd 3cb2 9e3d 7404 bf3c b99d b53c
00000080: 76a5 bcbb 3dd4 dd3d f8bc a7bd 9a33 72bd
00000090: 005c 19ba 943b fcbc 1da5 c63d 4b3b da3d
000000a0: f260 1d3d b9b4 c63d e3ce afbb 10ef 3abd
000000b0: 369b 573d 2c5c 9abd bddc a43d 4507 993c
000000c0: ea74 86bd d3e8 d1bd 75c8 673d fc35 a9bd
000000d0: ecbc dbbc 4ddd d93d fe62 b2bd bcd3 e9bc
000000e0: 2684 10bd 89c0 e83c 44e3 f73c a488 ff3c
000000f0: 185f 1c3a 7c32 b13d c037 b8bc b643 293d
00000100: 59c5 09bd 2241 d93d d145 b03d 3560 52bd
00000110: 8843 27bc 19c5 76bd e378 d53d e81d 52bc
00000120: 1ec6 3fbd d387 d5bd b4c7 ad3d 9c8c 9d3c
00000130: db0e 66bd d6e1 723d 8227 a1bd c8e0 3bbd
00000140: fe79 a9bd d520 23bd 8c59 80bd 576c e0bc
00000150: c2c4 2fbd 48d3 c63d 25f9 1f3d 9aa1 423d
00000160: 137e 9a3d 0c74 ccbc c2f9 b6bd 262c 4e3d
00000170: 88d1 84bd 9db0 ac3d eed7 93bd 7dab 8e3d
00000180: 1cdd d63c c720 da3d f9b3 f4bc 9bfd 8fbd
00000190: 22cf c4bd 1cb8 e6bc ba0b dc3c f158 5ebd
000001a0: bd54 cd3d 4691 7e3d 8cab 13bc 45ed b33c
000001b0: 5cfd 653d 801c ebbc cd16 3c3c d1cf c73d
000001c0: a0b7 94bc b8fe 8b3c 0d2f 49bd fadd d93d
000001d0: 5c4c c0bc fe22 09bd 5d18 8dbd 2dae b53d
000001e0: 66e8 443d 4cbb 3cbd cc66 d4bd e66d 4b3d
000001f0: c6cc b0bd 3c1b b63c 3770 38bd e5e4 d6bd
00000200: 56bc d8bd d8c9 7abc 2a42 433d b3e8 87bd
00000210: 4b59 193d 938f c03d b95c 53bd 96e5 413d
00000220: 8067 cd3a fa1c 22bd 90bf d33c 69ea a03d
00000230: ca77 ac3d d815 b1bd b013 d5bd 0483 bfbd
00000240: e66a a0bd 3dcd a03d c1d0 d43d 337c 803d
00000250: 7636 cb3d fac5 56bd c5b3 c23d 7e86 ba3c
00000260: c40f 9dbc 151b 84bd d097 48bc 0319 b7bd
00000270: d9dd 6bbd 271d 85bd 96a6 a93d 2ee2 5c3d
00000280: afda 9cbd a22e 453d 60cf 883d 00be aabb
00000290: 19be e1bb 9d73 9f3d 3cee 923c 17a9 d43d
000002a0: 39b8 1b3d f9df 223d fea6 9bbd dbc9 d23d
000002b0: eecf a3bd 08ff cdbc 7824 b9bd 2658 a5bd
000002c0: e1d2 afbd f218 973d 9fcd 9dbd 9ee5 d3bd
000002d0: 0819 a8bc 780e d83c 53f6 05bb 4ed8 653d
000002e0: 8536 183d 1248 8ebd 380a 8c3d 0e80 b93d
000002f0: cd49 a23d 7d09 d2bd 49c4 c63b a546 8e3d
00000300: 7ed5 bfbd e0c6 21bc cf09 c63d 1815 bebc
00000310: 0bd1 1e3d 74ed cabc 28f3 03bc 9eb6 5abd
00000320: fe56 5abd ca28 80bd 1ea9 a4bd 2060 463d
00000330: 8085 90bd e81a 1abd 539f 04bd bb49 da3d
00000340: 0acf 02bd d9f5 d53d d15a d3bd 4faa 833d
00000350: 48c4 85bd 0005 7d3a 043b c33c bb7e 73bb
00000360: de2e c73c 831c 4bbd f056 1dbd 00d0 babc
00000370: e6de 2c3d 449e b83c 6495 a43b ab7a ddbd
00000380: 96a2 f63b 52e2 0a3d 7ace 3d3d 0976 a33d
00000390: 1a75 b2bd b2a8 833c 8033 18bc eb9a 873d
000003a0: a010 6f3c 0d09 3c3d 2c0f ca3c 43cc 2abd
000003b0: 5418 9dbc fe2c 1b3d 45d8 b53d f3e6 7fbd
000003c0: b81c 093c b61e 39bd 7456 b63d ba87 9dbd
000003d0: 8cdc e53c 8451 b2bc ff57 4b3d 724d 613d
000003e0: ca59 093d bdc8 9abd 6e42 773d 7b06 07bd
000003f0: a4be 5e3c 79d1 b0bd 884d c9bd f4fa a03c

fc3.bias f4 [10]
0.0030987933 -0.06540662 0.09170902 0.07338594 0.1047161 0.04883374 -0.041508384 -0.0008639314
-0.10017339 0.02453078
00000000: 2015 4b3b e8f3 85bd f0d1 bb3d 5e4b 963d
00000010: 6575 d63d e305 483d b204 2abd 7479 62ba
00000020: b527 cdbd c6f4 c83c
