1--第1章 Pytorch工具_v2.0/cifar_net.pth (torch, 250887 bytes, 10 tensors)

conv1.weight f4 [6, 3, 5, 5]
000000 de 46 f4 bd 2f 09 40 3e 8b 47 4a bc 53 b2 50 be
       -0.11927579 0.18753503 -0.012346159 -0.20380525
000010 23 26 a8 3e e0 ab 10 bd da cb 97 3e 89 3f aa bd
       0.32841596 -0.035320163 0.29647714 -0.083128996
000020 55 39 d7 be 68 d4 52 3e 99 5f e2 3d b3 fb d3 3e
       -0.42035928 0.20588839 0.1105339 0.4140297
000030 f8 48 89 be 24 2e b4 be d7 8f eb 3d a8 c6 13 3e
       -0.26813483 -0.35191453 0.11502045 0.1443125
000040 52 e9 7d 3e 5a 62 83 be 31 ca 6b be 88 c3 31 3e
       0.24796036 -0.25660974 -0.23026349 0.17359746
000050 5c 24 0d 3d b6 69 b0 bd 96 91 00 be b7 fe 2b be
       0.034458503 -0.08613913 -0.12555537 -0.16796385
000060 97 fb 4d 3e 50 63 94 3d c6 21 07 3e a0 b0 3c be
       0.20115505 0.07245505 0.13196477 -0.18426752
000070 dc 53 8f be 93 14 4b bd 6f 05 ae 3d 9f 9d d2 3e
       -0.27993667 -0.049580168 0.0849713 0.4113588
000080 9f 84 7c bd 0b 3f eb be 02 e3 80 3d a9 50 68 3e
       -0.061649915 -0.45946535 0.06293298 0.2268702
000090 b8 f1 ed 3e ca 0b 52 be 49 29 fa be 0f be 33 bd
       0.4647348 -0.2051231 -0.48859623 -0.043882426
0000a0 f0 ed ad 3e 1c fc 1b 3e 5d a5 2d be 23 bd bf be
       0.33970594 0.15232891 -0.16957612 -0.37448987
0000b0 e1 b8 05 3d 51 e2 24 3e a5 c2 98 3c 46 6a 8d be
       0.032647017 0.16101958 0.018647501 -0.27620143
0000c0 4f f5 1f be 08 3c 06 3e 67 9f 99 bd 9b f6 b3 3e
       -0.15620922 0.13108838 -0.07501107 0.35149083
0000d0 5d 23 1a 3b 20 26 9d be 1c bf d6 3d af 44 ef 3d
       0.0023519613 -0.3069315 0.1048567 0.11683022
0000e0 b2 b4 eb 3e 85 3f 08 be 83 1b 12 bf 26 65 b4 3b
       0.46036297 -0.13305481 -0.5707323 0.005505222
0000f0 ce e3 1d 3e c0 b2 03 3f 62 fd 68 be 8a cc e0 be
       0.15418932 0.51444626 -0.22752908 -0.4390605
000100 76 1b b1 3d 35 57 b4 3e 44 5d c0 3e 12 1d 7c be
       0.08647816 0.35222784 0.37571156 -0.24620464
000110 7a c2 66 be 35 b1 64 bc 0b bd 0c 3e 41 46 12 3d
       -0.22535124 -0.013958265 0.13743989 0.03571153
000120 d2 3f 40 be 82 d5 86 bd d3 80 21 3e 1d 42 ab 3c
       -0.18774346 -0.06583692 0.15771799 0.020905549
000130 a5 66 02 be 16 86 9f 3c b4 c6 81 3d d2 ef 66 3d
       -0.12734468 0.019473117 0.06336728 0.056381054
000140 18 ca d6 bd de 3f ed bc d1 6d a9 bb a7 9b 16 3e
       -0.10487765 -0.028961118 -0.005170562 0.14707814
000150 00 5a 44 3e b9 6a 26 be bf 99 eb bc dd e9 0c 3e
       0.19174957 -0.16251649 -0.028759835 0.13761087
000160 ac 33 2e 3e 46 0b 81 3d dc cd 8c bd d9 c3 3d 3d
       0.17011899 0.06300978 -0.06875202 0.046329353
000170 7b 11 d7 3d 4a 8e d2 3d 89 e0 e8 3d 6a 72 51 3c
       0.10501381 0.10281046 0.11370952 0.012783626
000180 93 84 d3 3d 75 dd 05 3e 3d 8e 27 bd 6f 6f ae bb
       0.10328021 0.1307276 -0.040907133 -0.0053233425
000190 2f c2 2b be dc ba f6 bd e1 38 f6 bd da 4b 42 3a
       -0.16773294 -0.12047359 -0.120225675 0.00074118155
0001a0 b9 7e e8 3d 6d 02 48 be 0f fa 0c be f9 c5 6f 3c
       0.113522954 -0.19532175 -0.13767265 0.014634603
0001b0 00 ba 85 3d 73 12 d6 3d 13 28 41 be 57 dc 66 be
       0.06529617 0.10452738 -0.18862943 -0.2254499
0001c0 04 9e 04 3d 50 0d a0 38 40 6a f9 3d d9 58 3b be
       0.032377258 7.631874e-05 0.12178469 -0.18295611
0001d0 54 61 a8 bd 5e e7 eb 3c c4 51 39 bd b0 02 18 3c
       -0.08221689 0.028796848 -0.045243993 0.0092779845
0001e0 bd b3 27 be e7 21 5d bd ac 94 97 bd 92 3b 08 3d
       -0.16377158 -0.05398741 -0.07401404 0.033259936
0001f0 07 51 e1 bc 59 6d fc bd 16 f0 3f bd 06 64 9d bd
       -0.027504457 -0.12325544 -0.046859823 -0.076850936
000200 3b d9 1a 3e c4 71 03 3e cf 6a 72 be b3 99 cf bd
       0.1512193 0.12836367 -0.23673557 -0.10136738
000210 e7 2c 3d 3d b5 7e 09 3e 0b ef 52 3e eb 03 0b be
       0.0461854 0.13427241 0.20599 -0.13575713
000220 aa 90 f4 3c 47 b4 84 3d 53 78 8f 3e a5 7d 9d 3e
       0.029854137 0.06479698 0.28021488 0.30759922
000230 58 e5 a4 bd 6f d1 85 3d 14 bb d6 3d 16 b5 76 3e
       -0.08051556 0.06534087 0.10484901 0.24092516
000240 3f 6b 3d 3e 22 b2 5d 3c 48 5a 38 3e 6e db f5 3d
       0.18497942 0.01353124 0.1800319 0.120047435
000250 d2 fd 27 3e 91 3a fd 3c b7 91 89 3e c8 1d c0 3e
       0.16405419 0.030911716 0.26868984 0.3752272
000260 54 aa b4 3e 1d db b0 3e 04 2c e9 3e f9 9e 1c 3e
       0.352862 0.3454217 0.45541394 0.15295018
000270 af 2f 43 3e 58 72 b9 3e 95 d6 cf 3e bc d7 88 3e
       0.19061159 0.3622005 0.405934 0.26727092
000280 92 60 4e bc b0 1f 37 3e 4c 8d 4a 3e 1f 01 78 3e
       -0.012596266 0.17883182 0.19780463 0.24219178
000290 d6 be 4c 3e cd 70 57 bd 91 55 cb bd 5b 53 f0 bd
       0.19994673 -0.05259781 -0.0992843 -0.11734649
0002a0 27 b1 32 3d 08 7b 44 bc c6 70 a4 be 65 1a a8 be
       0.043625977 -0.011992224 -0.3211729 -0.32832637
0002b0 9a a2 57 be 94 3b 74 be f7 cf cc bd 38 99 86 be
       -0.21058121 -0.23850852 -0.10000604 -0.26288772
0002c0 81 d7 94 be 88 55 d7 bd 7c 9d d5 bd f4 86 1b be
       -0.29070666 -0.10514361 -0.104304284 -0.151882
0002d0 32 4d 8b be 81 c2 a4 be 27 86 9e be b9 20 71 be
       -0.27207333 -0.32179645 -0.30961725 -0.23547639
0002e0 df 85 4d be e9 ea 57 be 52 35 90 be 60 cd 85 be
       -0.20070599 -0.21085705 -0.2816568 -0.2613325
0002f0 1a 43 f0 bd c5 cc 46 3d d6 8f ef bc c5 1c 23 be
       -0.117315486 0.048535127 -0.029243391 -0.15928943
000300 3d 4b 74 be 7b 4d 34 be e3 5d 0c 3d e3 3d d1 3d
       -0.23856826 -0.17607681 0.034269225 0.10216882
000310 74 b2 8a bd 33 b9 dc bd d1 b9 ed bd 5f c3 1e bd
       -0.067723185 -0.107775114 -0.11607707 -0.03876054
000320 49 b7 59 bd 8f a7 f5 bd 47 27 18 bd 7e 12 f8 bd
       -0.05315331 -0.1199485 -0.037146833 -0.12112902
000330 84 d9 20 bd 7e 31 31 3d 72 a4 4e be 20 31 9b bd
       -0.03926994 0.04326009 -0.20179918 -0.07577729
000340 b6 d4 42 be 9b ba 74 3d b5 82 0e 3d 6a b0 11 be
       -0.19026455 0.059748273 0.03479262 -0.14227453
000350 7d 25 0b bc 92 17 e5 3b 7b e0 b5 3d f8 4c 45 3e
       -0.008492825 0.006991335 0.08880707 0.19267642
000360 f4 a3 fe 3c 8d 0b 41 3e d2 0c 30 3e 27 13 23 3e
       0.031084038 0.18852063 0.1719239 0.15925275
000370 42 64 49 3e 6a c4 36 3e f9 4f 5f 3c 9b 23 c3 3d
       0.19667152 0.17848364 0.013629907 0.095282756
000380 f5 99 44 3e 23 86 c1 3c b1 26 2c 3d ab 64 8b bd
       0.19199355 0.023623532 0.042029087 -0.0680631
000390 0b 43 1f 3d c0 d2 5b 3d 4b 06 92 bd e7 f1 54 be
       0.038882297 0.053667784 -0.071301065 -0.20795403
0003a0 fd c0 20 be b8 c9 76 be 12 9d 88 be 42 02 b2 bd
       -0.15698619 -0.24100387 -0.26682335 -0.08691837
0003b0 80 c2 18 be 0f 6b fe bd f8 1b 49 be b2 69 7d be
       -0.14917946 -0.124227636 -0.19639575 -0.24747351
0003c0 dc 85 ee bc a8 07 d6 bd ae 1a de bd 85 7f a2 bd
       -0.029116563 -0.10450679 -0.108449325 -0.07934479
0003d0 8b 4b 29 be d4 5e 90 bd 69 47 bf bd 9e fa 2c be
       -0.16532724 -0.07049337 -0.09339792 -0.16892478
0003e0 dd b6 46 be af e8 ee bd 0c 8a 98 3d c3 17 7e 3d
       -0.19405694 -0.116654746 0.07448205 0.06203438
0003f0 70 dd 65 3d 31 3e 9a 3d 0f 13 b3 bd 07 9f c5 bd
       0.056119382 0.07531393 -0.087438695 -0.09649473

conv1.bias f4 [6]
000000 c5 41 96 be 05 36 1f 3d 6a cf 99 be 11 e4 d8 3e
       -0.29347053 0.038869876 -0.30041057 0.423615
000010 d4 60 cb be 25 80 a5 be
       -0.39722311 -0.3232433

conv2.weight f4 [16, 6, 5, 5]
000000 c3 e4 8c bc 76 a8 4c 3d 22 c6 5e 3d 7b c7 9c 3d
       -0.017198926 0.049965344 0.054388173 0.076552354
000010 d5 67 39 bd 17 c0 86 bd 3e 0c 5f bd a8 bf 0f be
       -0.045265038 -0.06579607 -0.054455034 -0.14037955
000020 98 1f 14 bd d3 de 46 3d fa e4 f7 bd 10 12 d1 bd
       -0.036162943 0.048552345 -0.12104221 -0.10208523
000030 99 21 2b be a3 7c a4 3a ab 06 92 bd 3a 9c 30 be
       -0.16712035 0.0012549352 -0.07130178 -0.17247096
000040 94 71 ce bd 00 3b 01 be 25 c9 b0 bd db 68 18 be
       -0.10080257 -0.12620163 -0.08632115 -0.14883749
000050 ef 1c 99 bd a6 32 96 bd dd 3d 3e be 6d 33 0b be
       -0.07476222 -0.07333879 -0.18578286 -0.13593836
000060 e5 ff 00 bd c8 4b a6 bd 5f f5 83 bd 76 a0 90 3c
       -0.03149404 -0.08119923 -0.06443285 0.017654639
000070 96 de dc bd 0c 07 97 bd 8a a1 23 bd a8 40 bd bd
       -0.107846424 -0.07374391 -0.039948978 -0.09240848
000080 19 4c 9c bd 23 f1 ff bc 85 6e 2f bd b2 25 eb bd
       -0.07631702 -0.031242913 -0.04283001 -0.11481799
000090 6b 72 bf bd 70 04 5d bd e9 77 b3 bd 99 7f b9 bd
       -0.09347995 -0.05395931 -0.087631054 -0.090575404
0000a0 94 3f d1 3c 64 ec 1b 3d af ba 5b bd f1 aa 1b bd
       0.025543012 0.038067237 -0.053644832 -0.03800482
0000b0 46 89 ac 3d 61 ad 80 bd af 46 15 3b 78 8e a5 3d
       0.0842462 -0.062830694 0.0022777726 0.080838144
0000c0 a6 68 dd 3c 7d a2 8c bc 6d 1c 25 3d 17 d8 98 bd
       0.02702744 -0.017167324 0.040310312 -0.07463091
0000d0 4e 55 a9 bd de 5e 29 3d b7 42 4d bc 16 9f 1e be
       -0.08268224 0.041350238 -0.012528113 -0.15490374
0000e0 29 5e 14 be b2 09 be bc 68 47 78 bd ce 18 cc bd
       -0.14489044 -0.023197982 -0.060614973 -0.099656686
0000f0 34 16 74 bd fa 3b 84 bd 65 73 67 bc e3 a8 cf bd
       -0.059591487 -0.06456752 -0.014126633 -0.101396345
000100 8b 0e 8f 3c 53 61 29 bd 18 34 2f bd ef 0b 33 bd
       0.01746299 -0.04135258 -0.04277429 -0.043712553
000110 bd 7e ea bc d6 75 77 3d 51 12 45 bd c0 b1 c6 bd
       -0.028624887 0.06041511 -0.04811317 -0.09701872
000120 61 cf ac bd 0c 9b 0a bd 7b f2 9d bd 04 9f 7f 3d
       -0.08437992 -0.03383927 -0.07712265 0.06240751
000130 a0 0d a0 bd 3b 16 9f bd cd 0b ed bd ac 37 2b bd
       -0.07815099 -0.07767912 -0.115745164 -0.04180114
000140 0e d2 db bc 32 f7 da 3c 04 8a af 3c 73 11 84 3d
       -0.02683356 0.0267292 0.021428116 0.06448641
000150 be 5e e8 bc 00 e4 a9 bd 98 f7 aa bd 90 2c 8f bd
       -0.02836549 -0.08295441 -0.08348006 -0.069909215
000160 45 59 75 3d b3 33 5b bd 19 04 3d bc 89 ca 4e 3d
       0.059899587 -0.0535161 -0.0115366215 0.05048612
000170 c7 68 7c 3c 38 aa 03 3c cc 8d 2c bd ee 81 fa 3c
       0.01540584 0.008036189 -0.042127416 0.030579533
000180 06 58 b1 3d 71 17 59 3b 68 ee 9e 3d fe 99 4b 3d
       0.08659367 0.0033125544 0.07760316 0.049707405
000190 74 fb 3c 3e 19 fe 40 3e 9d db 4a 3e 7b fb e5 3d
       0.18455297 0.1884693 0.19810338 0.11229607
0001a0 6c 8a 48 3e b1 24 a5 bc 3b 7a 9f bd 5f a5 57 bd
       0.19584054 -0.020159097 -0.077869855 -0.052647945
0001b0 3f 89 0d 3d f2 8d cd 3d 95 9d 50 3e 88 78 8f 3e
       0.034554716 0.100368395 0.20372613 0.28021646
0001c0 4a c7 7b 3e 9c 88 21 3e 90 ad f0 3d 27 16 7e 3d
       0.24587741 0.15774769 0.117518544 0.062032845
0001d0 35 40 3e 3d 8f 75 74 bd c6 bd 45 3c 18 0b 77 3e
       0.04644795 -0.059682425 0.012069171 0.24125326
0001e0 cd a4 1d 3e 86 db ab 3d a1 53 bb 3d fb 29 06 3e
       0.15394898 0.0839148 0.0914681 0.13101952
0001f0 2d 53 6f 3d e4 8f 8c 3d f1 c2 85 3d 05 c5 a8 bc
       0.058428932 0.068633825 0.06531323 -0.020601759
000200 4b 04 63 bd f7 64 ad bd 95 62 7e bd d9 0b 3b 3d
       -0.055424016 -0.08466523 -0.062105734 0.045665596
000210 47 97 46 bd 16 72 b5 bd 54 a7 c3 39 ae 11 12 bd
       -0.048484113 -0.08859651 0.00037317968 -0.035661392
000220 53 bb 4b bc 06 c7 9b 3c 0d 32 39 bd 51 aa 05 3e
       -0.012434798 0.0190158 -0.045213748 0.13053252
000230 0b 17 4e bc f4 b6 15 bd a2 f3 18 3d 88 bd d6 3b
       -0.012578736 -0.03655143 0.03734172 0.0065533556
000240 48 65 e3 bc a8 0d aa bd 72 88 bd 3d 10 3b 8c 3d
       -0.027758256 -0.08303386 0.092545405 0.06847203
000250 1e 68 1b bc a6 ee 5b 3d 0e c1 07 be 87 a5 4e bd
       -0.009485273 0.05369439 -0.13257238 -0.050450828
000260 1b c5 b4 bd 9c cc 1b bd 82 fb 6d bd 0a 73 c6 bd
       -0.088266574 -0.038036928 -0.058101185 -0.09689911
000270 23 fa 08 be 09 1f 55 be 3f e5 15 be 5e 80 3d bd
       -0.1337667 -0.2081262 -0.14638232 -0.046265
000280 b2 07 42 be 32 16 4d be 2f 0c 48 be a2 46 4b be
       -0.18948248 -0.20027998 -0.19535898 -0.19851163
000290 da 69 a2 bd 4c 59 5d be 58 99 8e be 4c 50 70 be
       -0.07930346 -0.21616095 -0.27851367 -0.23468131
0002a0 d9 92 3a be 24 56 e4 3b 47 a8 80 be 8e bb a9 be
       -0.1822008 0.0069682766 -0.25128385 -0.33150905
0002b0 d5 ec 82 be e2 b1 80 bd 6a e9 0e 3d 7b 4b e2 bc
       -0.25571314 -0.062839285 0.03489057 -0.027623883
0002c0 b3 cb 7a 3c 45 47 8c bb 87 61 94 3d 8b 8e a8 3e
       0.015307355 -0.004280957 0.07245164 0.32921252
0002d0 e5 4f 94 bd 9e 84 68 bd 9d 9f 34 3c e2 49 d1 3d
       -0.07241801 -0.0567671 0.011024383 0.1021917
0002e0 33 a1 17 3e e4 74 0c be d9 40 d7 3c 6f 69 70 3d
       0.14807586 -0.13716465 0.026276039 0.0586943
0002f0 02 42 40 3d a5 b1 44 3e 8a 2b 26 be 96 33 63 bd
       0.04693795 0.19208391 -0.16227546 -0.055469118
000300 32 41 24 3e 5b 9f 3d 3e 0d 6c d9 3d 3d 3c 4d be
       0.16040495 0.1851782 0.10616312 -0.2004251
000310 8c c2 7d bd 9d 07 0a 3e 47 ef 50 3e 7a ed 3d 3d
       -0.061953112 0.13479467 0.20403777 0.046369053
000320 1e ab 2c 3e 01 6c 00 3e 9c 69 9a 3d 18 c9 82 3d
       0.16862151 0.125412 0.07539675 0.06386012
000330 3d 1e 64 3d 79 cb 81 3d 7f 56 18 3e e1 03 75 3d
       0.0556929 0.063376375 0.14876746 0.059818152
000340 ed 79 9f 3a 14 61 60 3d 6a 3a 82 bd 0f 27 4c 3c
       0.0012167074 0.05478008 -0.06358798 0.012460484
000350 bb c3 d3 3d 11 1a 14 3d 8a cf 8c bd 60 32 78 bd
       0.10340067 0.03615767 -0.068755224 -0.060594916
000360 93 14 f9 3c 04 7b 40 3d c8 3b b4 3c 16 ac 6e bd
       0.030405318 0.046992317 0.022001162 -0.058269583
000370 28 97 14 3e a8 2a 91 3d 8b 08 91 3d f8 02 cb bc
       0.14510787 0.07088214 0.070817076 -0.024781689
000380 f7 4e 25 3c d0 82 9d bd 34 d3 03 3c 20 bd c7 bd
       0.0100896275 -0.07690966 0.00804596 -0.097528696
000390 ce 3f d8 bd 34 be b4 3d 4d 9e 1c bc f2 96 f2 bd
       -0.10559045 0.08825341 -0.009559226 -0.11845197
0003a0 8f 6d e2 bc d6 69 9d 3c 43 78 d9 3c d2 21 cd bd
       -0.027640132 0.019215506 0.026546603 -0.10016216
0003b0 1d 22 ed 3b 91 56 26 bc a1 29 17 bd f7 0f 1d 3e
       0.0072367326 -0.010152475 -0.036904935 0.15338121
0003c0 31 4a 60 bd a8 93 ba bc a3 d1 87 bd 66 41 27 3d
       -0.054758254 -0.022775486 -0.06631782 0.040833853
0003d0 98 1a 53 3e c9 43 86 3d 6b 68 c1 3c 01 72 8a 3d
       0.20615613 0.06555898 0.02360936 0.06760026
0003e0 11 f3 d9 3d 1e 0e 8b 3e 76 16 17 3d 5e 7f ae bc
       0.10642064 0.27159208 0.036886655 -0.021300968
0003f0 25 4c 42 3d 6a 65 15 3d 0f 00 fd 3b fb cd 6e bd
       0.0474359 0.03647367 0.0077209543 -0.058301907

conv2.bias f4 [16]
000000 90 af 7f 3e 4e a5 00 3e 6e 2c 94 3e c9 f7 ff be
       0.24969316 0.12563059 0.28940147 -0.49993733
000010 62 c8 f5 3e d9 f8 4e be 62 5e 03 3e 0c d4 81 3f
       0.48004442 -0.20212115 0.12828973 1.0142837
000020 86 75 b9 be 7e c5 b1 bc f6 46 67 bf 8e de 1e 3f
       -0.36222476 -0.021700617 -0.9034265 0.6205834
000030 b1 4e 6e 3e dc cc b9 be 43 19 62 3f ee 1a 55 3e
       0.23272206 -0.36289108 0.88319796 0.20811054

fc1.weight f4 [120, 400]
000000 83 b1 b3 bd 3d 9e 00 3d 04 3e 88 3c 43 89 8d 3d
       -0.08774092 0.031400908 0.016631134 0.06910946
000010 91 c4 48 3c 9a c8 15 bd 74 bc 71 3b 9e ff 88 bc
       0.012253896 -0.03656826 0.0036886008 -0.01672345
000020 e3 b8 51 3d 4c 21 1b bd da 37 2c bd fa c0 1a 3d
       0.051201712 -0.03787355 -0.04204545 0.037781693
000030 7d 7f 95 3d b0 65 3d bc 29 f1 9f bd fc c2 3a bd
       0.07299707 -0.011559889 -0.078096695 -0.045596108
000040 f4 d2 24 3d 51 fe ac 3d c4 22 88 3d d4 23 4d bd
       0.040240243 0.084469445 0.06647256 -0.050082996
000050 2d 03 b1 bc 20 19 ec bb 87 b7 aa 3d a6 27 06 3d
       -0.02160796 -0.0072051436 0.08335786 0.032752655
000060 a8 a7 80 bd ef 06 28 3b f4 02 b5 bc c4 91 17 3d
       -0.06281978 0.0025638898 -0.022096135 0.037004247
000070 ec bf 92 3d 6f 33 0a 3e fe e8 0a bd 99 d6 2e 3d
       0.071655124 0.13496183 -0.033913605 0.042685125
000080 a2 0f 5f 3d 06 73 97 3c 7f 5d ee 3d e8 8a 90 bd
       0.054458268 0.018487465 0.11638927 -0.07057744
000090 c3 6b 29 3d ad 0e 68 3d b6 f5 00 bb 5c 5c 0d 3d
       0.041362535 0.05665462 -0.0019677705 0.03451191
0000a0 47 fd ef 3c a3 db 80 bd ba fa 8b bd 58 7f 19 bd
       0.029295577 -0.062918924 -0.06834932 -0.03747496
0000b0 4b c4 d5 3d 80 90 14 bc ab ef 57 bd aa d5 e7 bc
       0.104378305 -0.009067655 -0.0527188 -0.028300125
0000c0 06 3f f4 3d a4 78 bf 3d d9 f3 ba 3b af 9b 4c bd
       0.11926083 0.09349182 0.0057053384 -0.04995316
0000d0 3c 93 12 bd 26 70 d6 ba cc 09 b6 3d e9 15 7e 3c
       -0.035784945 -0.0016360327 0.08888587 0.0155081535
0000e0 3f 77 ad 3c 38 bb f9 3c 04 ad 45 3c 93 de ac 3d
       0.021175025 0.03048478 0.012065176 0.0844089
0000f0 9c 9b f9 bb 16 32 ec bc 20 14 87 3b 70 a4 3c 3d
       -0.007617427 -0.028832477 0.004122272 0.046055257
000100 8c 55 20 3c cb d1 83 bc 67 a3 57 bc d6 2a 1d bd
       0.009786021 -0.016091248 -0.013161517 -0.03837093
000110 b7 5b b4 3c ec 0f 43 3d 63 ef 79 3d a7 1e 13 3d
       0.02201639 0.047622606 0.061019313 0.035917904
000120 9e 6f 99 3d 3e 59 a0 b9 8c 5d 91 3b 4f b4 c0 bd
       0.074919924 -0.0003058407 0.0044362005 -0.09409391
000130 b9 b8 67 bd 1c 75 cf bd 55 e2 ab bd cf 06 f3 3c
       -0.05657265 -0.10129759 -0.08392779 0.029666333
000140 39 04 79 bc f7 52 d4 bd e8 34 2b be 0d 9e 26 be
       -0.015198761 -0.10367387 -0.16719401 -0.16271229
000150 2c 78 dc bb bc 55 46 bd f2 ea ef bd a1 a6 5b be
       -0.006728193 -0.048421606 -0.11714734 -0.21450283
000160 69 01 45 be b8 ef b8 bd 01 7b a7 bd 27 25 d1 bd
       -0.19238819 -0.09030098 -0.08177758 -0.10212164
000170 59 f2 88 bc 95 6d 8a bd 43 6c 24 bc 57 0b 17 bc
       -0.016717123 -0.06759182 -0.010035577 -0.009219012
000180 cd 8f 95 bd d1 c2 74 bc 60 7a e8 3a 07 b8 8d bb
       -0.073028184 -0.014939026 0.0017736666 -0.0043249163
000190 5d e9 7e bd ca 97 d2 b9 3a 37 0b 3d 94 ea 0a 3d
       -0.06223427 -0.00040167413 0.033988215 0.033915117
0001a0 b3 71 2b 3d 5e a8 ce bd 82 89 11 3d 0c b7 95 3c
       0.04185648 -0.10090707 0.03553153 0.01827576
0001b0 6d e8 be 3c 99 17 95 3c ec 62 8c bd e8 5c 88 bd
       0.023304189 0.018199729 -0.06854805 -0.066583455
0001c0 33 d0 05 be 2b 01 50 bc b8 3c 0c bd 0a 14 58 bd
       -0.13067703 -0.012695591 -0.034237593 -0.052753486
0001d0 15 1e 0c be 4a 20 17 be 32 2b b4 bd b9 73 88 bb
       -0.1368335 -0.14758411 -0.08797301 -0.004164186
0001e0 a7 25 3e bd 0c a0 bb bd fc 78 e1 bd 93 21 35 bd
       -0.046422627 -0.09161386 -0.11009404 -0.044221472
0001f0 de 9b bd 3a 55 ab 7b 3d cc 13 f7 3c f6 a4 30 3d
       0.0014466008 0.06144269 0.030160807 0.04312607
000200 96 49 7f bd 47 47 9c 3d 87 67 bc 3d 42 e0 2c 3c
       -0.062326036 0.076307826 0.09199434 0.010551514
000210 55 1f d2 3a ba 39 c6 bc d2 d1 55 3d 0e 48 b3 3d
       0.0016031066 -0.024197448 0.052202053 0.08753978
000220 2d 50 0d 3d a9 17 03 bb dd fb 23 bd 0c 83 be 3c
       0.03450029 -0.0020003116 -0.040035117 0.023255847
000230 18 a2 98 3d 27 e8 94 3d 70 57 08 bd fc 91 6b bc
       0.07452792 0.07270842 -0.033286512 -0.014378067
000240 51 2b 98 3d be 85 74 3d b6 fa 8a bd e1 08 8f bd
       0.07430137 0.05969786 -0.067861006 -0.069841154
000250 2a 20 82 bd f2 81 3f ba 54 3e 25 3d 22 74 b8 3c
       -0.06353791 -0.0007305435 0.040342644 0.022516314
000260 44 99 2c bc 1c a3 e4 3a 64 b4 30 bc ad 6c 21 3d
       -0.010534588 0.001744363 -0.010785196 0.039410282
000270 9f c3 3d 3c 91 f6 b0 3c 54 cd eb 3b 06 58 00 3e
       0.011582284 0.021601947 0.007196108 0.12533578
000280 a4 38 b7 3d 90 fe 96 bc e3 a6 d6 bc 58 c3 3d 3d
       0.0894635 -0.018431932 -0.026202625 0.046328872
000290 22 6b 8b 3d 88 c8 d5 3d a6 c0 c2 bc 44 9e 27 bd
       0.06807543 0.10438639 -0.023773503 -0.04092242
0002a0 8c aa c9 3c 79 23 2f bb 50 c9 21 3d 1a 76 b9 bc
       0.024617456 -0.0026724024 0.039498627 -0.022639323
0002b0 4a da 25 bc 5b ce 9b bc ed 8d 88 3d a2 3e 1d 3c
       -0.010122845 -0.019019296 0.06667695 0.009597452
0002c0 5c 96 73 3d 75 bd 84 3d 56 83 87 bc 3b 2d 41 3d
       0.059469566 0.064814486 -0.016542118 0.047162276
0002d0 65 ce c3 bd 02 a3 bf bc 79 35 f9 3d 3d 08 4c 3d
       -0.09560851 -0.023393158 0.12168402 0.049812544
0002e0 4f 8a fe 3d a1 0f 89 bd 66 31 43 bd 06 4c ee 3d
       0.12428724 -0.06692434 -0.047654532 0.11635594
0002f0 96 d8 ac 3d 35 e9 73 3d 9b 4f 10 bd d0 a8 64 3b
       0.08439748 0.059548575 -0.035232168 0.003489066
000300 4c 2b 98 3d b3 f6 4e 3c a9 19 bb 3c a9 a1 1e bc
       0.07430133 0.01263206 0.022839384 -0.0096820975
000310 88 a2 3f 3d af 94 88 bc 2a c5 2d 3b 13 d6 56 b9
       0.04678586 -0.01667246 0.0026515224 -0.00020488379
000320 42 9a 0b bd c7 42 5f 3c 68 b1 2e bd e2 aa 28 3b
       -0.03408266 0.013626761 -0.042649657 0.002573662
000330 4b 72 48 3c ea ae ab bd b0 4c 0b be 8a 88 93 bd
       0.012234281 -0.083829716 -0.13603473 -0.07203777
000340 c6 34 6e bd c6 35 c6 3c 08 04 b8 bd 84 e0 43 bd
       -0.058155797 0.024195563 -0.08985144 -0.047821537
000350 49 44 42 bd a3 6a d4 bd 8a 3d 9c 3c 5e f9 40 bd
       -0.047428403 -0.10371902 0.019072313 -0.047112815
000360 fa cf b2 bd c4 7c f1 bc 6d 5a 54 bb 85 65 44 bd
       -0.08731075 -0.029478438 -0.003240253 -0.04794838
000370 95 ea eb 3c 5d 86 44 3b 38 05 ed 3c fc 5b bd 3d
       0.02879838 0.0029987313 0.028933153 0.0924606
000380 cc 2a db 3c 7a 26 c1 3b d5 36 7d bc 80 3b 3d 3d
       0.026753806 0.0058944793 -0.0154549675 0.04619932
000390 50 dc 80 3c 51 ef 4a 3d d0 32 33 bb 61 e4 5f 3b
       0.015730053 0.049544636 -0.002734352 0.0034163224
0003a0 1d 67 02 3d e0 a4 0e bd 5a cd b1 3c 1e 21 8f 3c
       0.031836618 -0.034825206 0.021704365 0.017471846
0003b0 e5 26 c0 39 15 5c 62 3d fb e5 74 bc 0f d4 4f 3d
       0.00036650072 0.055263598 -0.01494741 0.050739344
0003c0 00 0d 6b 3d 40 e0 39 3d de 94 66 3d 0c 3c b8 bc
       0.057385445 0.045379877 0.056294315 -0.02248957
0003d0 fa 1f 18 3d b4 48 91 bb 1f cc 96 3c c4 24 88 3d
       0.03713987 -0.0044337157 0.01840788 0.066476375
0003e0 de 59 67 3d 5b c6 25 3d a6 71 04 3e ba 46 3a 3a
       0.05648219 0.04047237 0.12933978 0.0007105876
0003f0 97 19 09 3d 62 a1 f0 3b 70 e3 69 3d b3 8f 8f 3d
       0.03347167 0.007343457 0.057101667 0.0700983

fc1.bias f4 [120]
000000 99 72 de 3c 3e 2a d3 3c c2 7e 91 bd fc 61 ce 3b
       0.027154254 0.025776979 -0.07104255 0.0062983017
000010 80 43 06 3e 30 a8 50 3e 5f 5a 5d 3c 99 89 16 3e
       0.13111687 0.20376658 0.013510316 0.14700927
000020 ca 62 8c 3d 05 03 b2 3d a4 cd 8c bd 13 ba 59 3d
       0.0685478 0.08691982 -0.0687516 0.05315597
000030 4b 9c ef bc 5a c5 1b 3e b8 3d 30 bd 55 0d af 3c
       -0.029249331 0.15212002 -0.04302761 0.021368662
000040 7e 34 d1 3d 07 94 b3 3c 07 5d 94 3c f8 87 d7 3d
       0.1021509 0.02192117 0.018110765 0.10523981
000050 61 da f3 bb 24 5d 24 3e cf 14 2a bc a4 0e 97 bc
       -0.0074418043 0.16051155 -0.010380938 -0.018439598
000060 be d6 f7 bc 16 4c 55 3c 56 59 92 3d d4 ac 1f 3c
       -0.030253764 0.013018629 0.07145946 0.009745795
000070 68 ae 95 3c 23 74 62 bd dd 5c 74 3c ff 92 81 bc
       0.01827164 -0.055286538 0.014914718 -0.015817164
000080 9b e3 41 3c 39 7c 35 3c c2 85 14 3e 68 16 96 bd
       0.0118340505 0.01107698 0.1450415 -0.073284924
000090 3a e7 8a 3d 5e e1 92 3d 58 9d 86 bd 11 23 86 bb
       0.06782384 0.07171892 -0.0657298 -0.0040935357
0000a0 97 f9 46 bc 7d e7 e6 3c fa 03 f9 bc aa 19 76 bd
       -0.012144468 0.028186554 -0.030397404 -0.06008307
0000b0 00 12 d9 3b 1e 7b 68 3d 61 b3 3c bd 42 44 ad 3b
       0.00662446 0.05675804 -0.046069507 0.005287678
0000c0 5c 33 e8 3d 96 8c 59 3c ba ff 0b 3d 51 59 04 bc
       0.11337921 0.013278147 0.034179427 -0.008077935
0000d0 15 01 d2 3c f3 02 25 3e 41 63 72 3d 71 c6 a2 bd
       0.025635282 0.16114406 0.059176687 -0.07948006
0000e0 41 be 71 3d 29 8a 83 3d eb 08 2c 3d dc ea 91 bd
       0.05901933 0.06422836 0.042000692 -0.07124874
0000f0 65 26 2e 3d f8 82 5d 3c 5a ef 24 3e 17 99 02 bc
       0.042517085 0.013519995 0.1610693 -0.00797107
000100 9a 5c df bd 12 4b 7a 3c 67 2e 2d 3e 03 bc 3c 3b
       -0.10906334 0.015276687 0.16912232 0.0028798587
000110 36 ea bb bc d5 20 04 3e e2 9a c7 bc 4e 0b 30 bd
       -0.022938829 0.1290315 -0.024365846 -0.04297953
000120 5d 21 06 3d 56 fb 01 be 3a 53 78 3c eb 2b 6d bc
       0.03274666 -0.12693533 0.0151565615 -0.014475803
000130 3d 40 24 bd 33 c3 ce 3d 4a 39 7f bd 0b 12 fb ba
       -0.040100325 0.10095825 -0.062310494 -0.0019155157
000140 53 b6 db bc cb 33 46 bd d8 0e 34 3d b2 94 66 3e
       -0.026820337 -0.048389237 0.04395947 0.2251766
000150 b3 58 84 3d 91 eb bf bc fc 9c cf bc 5c e9 f3 bc
       0.064622305 -0.023427757 -0.02534341 -0.02977436
000160 ed e4 22 3d 81 f5 1a bd b1 6b 1b 3d cd 07 33 3d
       0.039769102 -0.037831787 0.0379445 0.04370861
000170 60 3e e7 3d 1f af 03 bd 6d c0 75 bd da 72 43 3d
       0.11291194 -0.03214943 -0.059997965 0.047716953
000180 e8 10 2c bd dc 8b ea bb 51 cb ea 3d fd e3 b4 3d
       -0.04200831 -0.007157786 0.11464561 0.08832548
000190 b9 e6 8f bd 43 7e dd 3d 0a 34 56 bd 56 b3 77 bd
       -0.07026429 0.10815098 -0.052295722 -0.060473762
0001a0 c8 bc a6 3d f2 12 cc 3c 1a 7d a2 3d 0e f9 a2 3b
       0.08141476 0.024911378 0.079340175 0.0049735373
0001b0 66 83 99 bd 66 ce bf 3c 40 30 92 bd 68 91 c5 bd
       -0.074957654 0.023413848 -0.07138109 -0.09646875
0001c0 61 ed be b9 69 7e 3b bc e4 f1 c0 bd 4f 32 b2 3d
       -0.00036416485 -0.011443713 -0.09421137 0.08701002
0001d0 23 71 ae 3d 7f f9 9c 3c 18 9f 8c 3d 11 7d 98 3d
       0.08517673 0.019161938 0.06866282 0.074457295

fc2.weight f4 [84, 120]
000000 50 31 8e bd f7 a9 82 3c c1 f6 38 bd 1a 9e ef bd
       -0.06942999 0.015950186 -0.045157198 -0.11700077
000010 0e 90 6c 3b 62 8c 31 3d 44 b2 0b bc 58 87 92 bd
       0.0036096605 0.04334677 -0.008526389 -0.07154721
000020 72 b6 c0 3b ba 64 d2 bd 78 a0 8a bd 71 4b dc 3d
       0.005881124 -0.10273118 -0.06768888 0.10756577
000030 f2 78 18 bd 0e 50 96 3d 3e f5 8b ba ef 54 c9 bd
       -0.037224717 0.07339488 -0.0010677946 -0.09830653
000040 f2 6b 11 3e bd 50 f7 bd 68 ed 26 bd 3b e8 a5 3d
       0.14201334 -0.120759465 -0.040753752 0.08100935
000050 84 28 e6 bc 41 2a af 3d 28 db d2 3a e7 a8 c2 bd
       -0.028095491 0.08552981 0.0016087042 -0.09504872
000060 6f cd a7 3c 17 b9 c2 bd 6e 21 f2 3d 86 e8 4e 3d
       0.0204837 -0.09507959 0.118227825 0.05051472
000070 6e 4a 1e bd 95 83 a3 bd e3 1d 01 bd f3 98 bd 3c
       -0.0386452 -0.07984082 -0.031522643 0.023144221
000080 fd e6 a8 bd ff f5 b9 3d 97 0d a8 bc fa 8a 02 3c
       -0.082471825 0.09080123 -0.020514293 0.007967705
000090 5d fb a6 bd e6 d9 66 bd ee d8 86 bd 9d 4e ab 3d
       -0.081534125 -0.056360148 -0.06584345 0.08364604
0000a0 27 0a b4 3c a5 7a 29 3d 2c f4 f9 bc a3 fc 5e bd
       0.021977497 0.04137673 -0.030511938 -0.054440152
0000b0 54 94 bb 3d f0 b9 87 bd 4d 36 91 3c f5 6a 9a 3d
       0.09159151 -0.06627262 0.017726088 0.07539932
0000c0 0b d3 ae 3d 38 54 dd 3c 9f e6 b9 bd cb 4e a9 bd
       0.08536347 0.027017698 -0.090771906 -0.08266982
0000d0 8b b6 55 bd 41 ce 54 3d 36 63 8b bd 3a e7 5d bd
       -0.05217604 0.05195451 -0.06806032 -0.054175593
0000e0 14 fb b9 3d 4f 1b d4 bc e6 62 37 bb 67 fe f3 bd
       0.090810925 -0.025891928 -0.0027982532 -0.11913758
0000f0 d4 63 64 bd 4f b1 8e bd 2f 82 e9 3d 56 d0 b8 bb
       -0.055759266 -0.06967413 0.11401784 -0.00564007
000100 4a 4d b9 bd 07 25 8f bc 5e 7d d1 3d 28 46 89 bd
       -0.09047945 -0.01747371 0.1022899 -0.06702834
000110 28 40 b3 3d 0a 6d 43 bd 6d 6d 63 3d 35 20 50 bc
       0.08752471 -0.04771141 0.05552428 -0.012702991
000120 3f 9a 7a bd db 61 dd bc a2 9b cd bd 6a 3e 1c bd
       -0.061182257 -0.0270242 -0.1003945 -0.03814546
000130 43 b5 c3 3d 6a 2d e5 bb da 7a 82 bd 97 79 12 be
       0.09556057 -0.006993939 -0.06371088 -0.14304195
000140 46 e4 c8 bd 6c 1b ae 3d 24 0d 29 ba 94 2c a3 3d
       -0.09809165 0.08501324 -0.00064487965 0.07967487
000150 18 b3 e4 3d fa a3 0c 3c c6 5a 7e 3a 62 37 02 3a
       0.11166972 0.008584017 0.00097028574 0.0004967359
000160 61 d8 cf 3d dd e6 97 3d 05 f1 92 bc 3d 93 a4 bd
       0.10148693 0.074170806 -0.017937193 -0.08035896
000170 4c 41 47 3c f5 90 32 3d 20 75 fe 3c 62 ca 60 3d
       0.012161564 0.043595273 0.031061709 0.054880507
000180 21 43 78 bd 50 31 67 bd b9 3e 8d 3c 67 76 f3 3d
       -0.060610894 -0.056443512 0.017241823 0.11887818
000190 fe 1c b3 bd c1 bb 83 bc 38 f8 2d 3d 65 fb 0b 3d
       -0.08745764 -0.016080739 0.042473048 0.034175295
0001a0 84 07 05 bd 0f f6 5d 3d 45 73 c7 bd be c8 85 3c
       -0.03247787 0.054189738 -0.09738783 0.016331073
0001b0 c7 8f ff bd 86 8f c9 3b 3e 7f 2b 3d 4d 78 26 3d
       -0.12478595 0.0061511425 0.041869394 0.04064207
0001c0 29 4b 20 3d c5 29 42 bd 50 69 70 bc 28 b6 55 bd
       0.03913418 -0.047403116 -0.014673546 -0.05217567
0001d0 e9 d8 04 3c c3 9d 88 bd 31 68 61 3d e4 5e 1e bd
       0.008108356 -0.06670716 0.055031005 -0.038664714
0001e0 9f 5d 49 be c1 94 49 3d 5c a9 28 bc e2 74 07 bd
       -0.1966462 0.04921413 -0.010294285 -0.033070453
0001f0 60 1f 48 bd c2 82 e7 3c f9 f2 96 3d ad 40 17 3d
       -0.048858047 0.028260592 0.07370562 0.036926914
000200 a1 6a 75 3c ed cd cb 3d a1 93 4b 3d 97 f9 25 3d
       0.014979036 0.099513866 0.049701337 0.04052123
000210 50 85 8f 3d 0f 11 33 bc 5a 48 4a bd b7 e5 de bd
       0.07007849 -0.01092936 -0.049385406 -0.108836584
000220 2b 3b ef 3c 99 93 83 3b 0c 47 89 3d 47 dc 83 3c
       0.029203018 0.0040153977 0.06703004 0.016096247
000230 46 31 04 3d 63 c3 0a 3e ff c7 a0 bd fa 7a b2 bd
       0.032273553 0.13551097 -0.07850646 -0.08714862
000240 c6 13 b0 bd 4f bf 38 bc a0 63 2f 3d dd c0 1c 3d
       -0.085975215 -0.01127608 0.04281962 0.038269866
000250 06 62 1c bd 27 78 3d bd 9e 15 bb 3d 72 57 6d 3d
       -0.03817942 -0.046257164 0.091349825 0.057944722
000260 89 f1 9f 3d e8 f8 12 3d 19 0f c3 bd 28 7b a6 bc
       0.07809741 0.035881907 -0.09524364 -0.020322397
000270 09 be 85 bd 15 72 1f 3d eb 83 97 3d b0 0a 31 3d
       -0.06530387 0.038927156 0.07398208 0.043223083
000280 03 2d 32 bd b6 80 11 3d 4e 14 d0 bc e9 0f 3c 3d
       -0.043499958 0.03552314 -0.025400307 0.04591361
000290 d9 15 d3 3d d6 8f 07 3d bf ca b7 3d 2b 8f a5 bd
       0.103069015 0.033096157 0.089742176 -0.08083948
0002a0 0a c0 fd 3c fe 84 0d bd 7d 40 f0 bb fd 0c a1 3d
       0.03097536 -0.03455066 -0.0073319064 0.078638054
0002b0 7f 00 8f 3c 04 85 cb 3d e5 3e c5 3c 37 5b 4d 3d
       0.017456291 0.0993748 0.024077842 0.050135817
0002c0 89 34 f3 bc 07 14 18 bc e1 23 f1 bc 93 a5 65 bd
       -0.029688137 -0.009282119 -0.029436054 -0.056066107
0002d0 e6 55 4c 3d 10 c6 a7 bc 8e 91 fa 3c 7f e2 ee bb
       0.049886607 -0.020480186 0.030586984 -0.007290184
0002e0 80 de 00 be 3c 5b 6c 3c 31 13 30 bd 83 90 83 bd
       -0.12584877 0.014426049 -0.042987052 -0.06424048
0002f0 91 9c 15 3c ad d0 aa bc 9f 27 c9 bd 26 f1 77 bd
       0.009131567 -0.020851457 -0.0982201 -0.06053271
000300 9b ad a2 3c 82 5c 00 be 3d 9e 08 3d 39 2e 93 ba
       0.019858172 -0.12535289 0.033354033 -0.0011228985
000310 f9 2e d5 bc d6 8c 99 bd 64 f1 92 bd 1c be 2b 3b
       -0.026023375 -0.074975654 -0.07174948 0.0026205843
000320 ce a5 a6 bd 45 8d e3 bc 52 b7 07 bd eb c3 b3 bc
       -0.081370935 -0.027777323 -0.033133812 -0.021944007
000330 9b 1e 6a 3c f0 10 db 3d 09 da 95 bc 6a e0 39 bd
       0.0142895235 0.1069659 -0.018292444 -0.045380034
000340 17 0b 8b 3d a9 fe 25 bd c0 01 4b 3d f3 ce de 3d
       0.067892246 -0.040526066 0.049562216 0.10879316
000350 f1 d5 b6 bc b7 d5 e6 3d 4b f2 8e bb 98 7d cd 3d
       -0.022318812 0.112712316 -0.0043623797 0.10033721
000360 63 cc 88 3c e9 bb 4c bd 86 61 7e 3c f4 e4 65 bd
       0.016699022 -0.049983893 0.015526181 -0.05612655
000370 92 24 36 3c ff f0 fc 3d 1e 0e 7a 3d 59 31 40 bc
       0.0111171175 0.12350654 0.06104862 -0.011730515
000380 17 60 ce bc 94 77 7c 3a d9 5f ca 3c 64 a4 25 bb
       -0.025192304 0.00096308556 0.024703907 -0.0025274986
000390 b6 7e 9b bd 34 3e c3 bd 07 c1 4c bd 68 e8 ab 3d
       -0.075925276 -0.09533349 -0.049988773 0.08393937
0003a0 ee 29 e1 3b 90 f7 32 3d 61 44 68 bc dc 42 3f bc
       0.0068714535 0.043693125 -0.014176459 -0.011673655
0003b0 22 cb 0f bd 3b 37 a9 bd b7 ab 41 bd fc 4a 38 3e
       -0.035105832 -0.082624875 -0.0472829 0.17997354
0003c0 f3 b6 54 bd 43 30 f7 bc e8 df 50 bd 37 88 50 3d
       -0.051932286 -0.03017438 -0.050994784 0.050911155
0003d0 27 49 60 bd 15 6c da bd e8 75 37 3d 0b f4 bd 3d
       -0.054757264 -0.10665146 0.04479018 0.09275063
0003e0 bf d7 3e bd ee 4a c9 3c 71 33 23 bd 39 47 d5 bd
       -0.04659247 0.024571862 -0.03984398 -0.10413975
0003f0 e9 30 61 bd 01 6f 83 3d 27 06 04 3c 95 b8 35 bd
       -0.054978285 0.06417657 0.008058107 -0.044365484

fc2.bias f4 [84]
000000 3f ab 9e 3e c5 2e 5b 3e d5 49 3a 3e 9d 53 4e 3e
       0.30990025 0.2140456 0.18192227 0.20149083
000010 db ae b8 bc 42 62 e7 3b 55 fb 3b 3e 1f 3f 41 3e
       -0.022544315 0.007061274 0.18357594 0.18871735
000020 37 ef 95 bb 75 dc 35 3c b3 06 06 bd cd 8b 85 3e
       -0.004575636 0.011099924 -0.032721233 0.26083222
000030 9f 74 87 3c 5b 4e 26 3d bd 69 5c bd fc 5c 7a 3d
       0.016535101 0.04060207 -0.053811777 0.061123833
000040 9d e3 95 3b df a8 29 3c 88 a9 52 bd bc cf 15 bd
       0.0045742528 0.010355203 -0.05143121 -0.036575064
000050 af 95 31 3e 5d b3 17 3e 61 52 07 3e b4 34 f7 3d
       0.17342256 0.14814515 0.13215019 0.12070599
000060 b1 a6 18 3d 83 66 34 3e 0e 09 18 bc 35 dc 74 3d
       0.037268344 0.1761723 -0.009279503 0.05978032
000070 ef 03 93 bc 38 a7 b1 3d 0f 74 4f 3e 1b 50 0d bd
       -0.017946212 0.086744726 0.20259117 -0.034500223
000080 14 ad 12 3e 59 60 5d be 17 6f 13 3e d1 8d 4e bd
       0.14323837 -0.21618785 0.14397846 -0.050428215
000090 65 14 f7 3d e1 20 3a 3d be c7 8f 3d 7c f4 ab bd
       0.12064437 0.045441512 0.0702052 -0.08396241
0000a0 56 84 32 3e 59 0e 7b bd 9e 7e 20 bd 98 10 a9 bc
       0.17433295 -0.06129298 -0.03918325 -0.020637795
0000b0 15 4c e8 bc 31 7c e9 3d be e1 e9 38 24 14 2d 3d
       -0.028356591 0.11400641 0.000111523535 0.042255536
0000c0 e3 2e 15 be 7e d6 8f 3d 3a 6b c1 3d 4d 4a 85 3e
       -0.14568667 0.07023333 0.0944428 0.2603325
0000d0 f6 0f 8d bd 54 53 05 3d 92 ea 76 3d 9c 2a 61 3e
       -0.0688781 0.03255017 0.060282297 0.2198891
0000e0 a0 1f 8f bd 55 91 4d 3e 67 ad e2 3d 41 3d 5b 3e
       -0.06988454 0.20074971 0.1106823 0.21410085
0000f0 2f 9d 47 3d fd a1 64 3d 77 e6 da 3c a9 83 7c 3d
       0.048733886 0.055818547 0.026721222 0.061649
000100 24 76 76 bc 9a 00 88 bd 51 07 c1 bd 96 14 05 bd
       -0.015042815 -0.0664074 -0.094252236 -0.032490335
000110 1d b5 a3 3b 93 34 94 3c ff d5 6c 3d 03 61 e5 bd
       0.0049959556 0.018091476 0.05782127 -0.11200144
000120 af 3d dd 3d 31 45 9c bd b6 11 e7 bc 59 0e af 3c
       0.10802781 -0.07630385 -0.028206687 0.021369146
000130 cc 22 45 bd 38 2f c4 bd 25 4d 01 3e a1 8c 1f bd
       -0.048128888 -0.09579319 0.12627085 -0.038952474
000140 c2 4c 0d 3e ef c6 ad 3c 59 0d cd 3e ae d0 10 3e
       0.13798812 0.021213023 0.40049246 0.14142105

fc3.weight f4 [10, 84]
000000 44 06 70 be 6a 46 24 3e 8e 0e e5 3d 71 bb 24 be
       -0.2343989 0.16042486 0.11184417 -0.16087128
000010 aa 0f 01 bb 91 bf 5a bd 08 70 1d 3e ea 1e 4e 3d
       -0.0019693174 -0.05340535 0.15374768 0.05032245
000020 bf 60 22 bb f4 ba af 3d fd 6f f6 3b a2 f6 2f 3e
       -0.0024776903 0.0858058 0.0075206743 0.17183927
000030 6c 09 e4 bd 7b ab ee bd cd 4c 91 bd d6 c0 87 3d
       -0.111346096 -0.11653801 -0.07094727 0.066285774
000040 ae 84 5f bc 24 9b 46 3d 14 86 6a 3e b2 26 04 3d
       -0.013642473 0.048487797 0.22902709 0.032263465
000050 5d e3 ec 3d d4 20 20 be 19 81 ce bc 77 1c c9 bd
       0.115668036 -0.15637523 -0.025208043 -0.09819882
000060 df ad 94 bd 0a 41 1f 3b a5 e5 8a 3b 9b 69 ae bd
       -0.07259726 0.002430024 0.0042388015 -0.085162364
000070 54 44 38 be fe d1 06 bd d1 ec f9 3d c2 de 03 3e
       -0.17994815 -0.032915108 0.12203372 0.12877944
000080 14 b4 6c 3e 9e 72 6e 3d 2f 1c 28 3e 10 39 5f 3d
       0.2311557 0.058214776 0.16417001 0.05449778
000090 8e 65 14 3e 77 06 20 3e 08 75 e8 bd ec 71 4e bd
       0.14491865 0.15627466 -0.11350447 -0.050401613
0000a0 97 d1 a6 bd 18 9c 2d 3e 10 b1 64 3d b2 83 ef bd
       -0.08145445 0.16954076 0.055832922 -0.11695041
0000b0 51 b6 2e bc 44 2f 1a 3d 6f 5b c9 3d bd 48 34 3d
       -0.010663585 0.037642732 0.09831893 0.04401468
0000c0 08 b9 76 3e 9a 98 76 bd 76 5e 1c 3d 04 4f 71 be
       0.24094021 -0.060204126 0.038176022 -0.23565298
0000d0 e1 58 22 3e be ec 41 3d b7 ae 5f bd 67 85 68 be
       0.15854217 0.047344916 -0.05460998 -0.22707139
0000e0 57 f8 df bd 31 2f 98 3e ce 9b 1a be 70 b0 f6 3d
       -0.10936039 0.29723504 -0.15098497 0.120453715
0000f0 0e 14 7e bd bc 0c 2b bd 3e 95 f1 bd ec af d6 bd
       -0.062030844 -0.04176019 -0.11796044 -0.10482773
000100 15 6d 81 3e aa 41 05 3e d7 be 46 3d 17 ff 8c 3d
       0.25278535 0.1301333 0.048521843 0.06884592
000110 71 8d 67 3c 11 b4 0c be 76 dd a6 3d 17 84 2d 3e
       0.014132843 -0.13740565 0.08147709 0.1694492
000120 23 09 b5 bc c1 d7 eb bd 0d d3 74 3d 72 d6 cf 3d
       -0.022099083 -0.11515761 0.059771586 0.10148324
000130 99 1f 03 3e d0 79 a8 3d c4 84 24 3e 03 da 0c 3e
       0.12805022 0.08226359 0.16066271 0.1375504
000140 3b 80 26 3e 8f 09 f6 3c 4e 99 61 be 6f da 5d 3e
       0.16259854 0.030033855 -0.22031137 0.21665357
000150 4c ec 84 bd 9a 52 db bc 69 b0 6e bd ae 93 99 bd
       -0.064903826 -0.026772786 -0.058273707 -0.07498871
000160 1f 3c 1a 3d 98 e2 cd bd 4a 40 8c be 5d 4e ac 3d
       0.037654992 -0.10052985 -0.273928 0.08413384
000170 4b 53 14 3d bf e6 3e 3c 00 a9 00 be c8 28 8f be
       0.036212247 0.011651694 -0.12564468 -0.279608
000180 cc 3d be bd e0 0e c1 3d ae 4c 2d bd d2 de 8b 3c
       -0.092891306 0.09426665 -0.042309456 0.017074022
000190 73 08 a9 3e 6b e2 80 3d 82 eb 8a bc b6 98 10 bd
       0.3301426 0.06293186 -0.016958002 -0.035301886
0001a0 0e 9a 96 bd b7 f6 33 be 57 93 83 3c e0 13 d5 bd
       -0.07353602 -0.17574583 0.016061468 -0.104041815
0001b0 22 3a 52 be 8b 6e 86 be d3 40 db bb b7 8c 3a 3e
       -0.20529988 -0.26256213 -0.0066910773 0.18217741
0001c0 3f 92 e8 3d 88 a7 f8 3d 76 93 8d be 81 63 d9 bb
       0.11356019 0.12141329 -0.27651566 -0.0066341762
0001d0 9a fb 10 3e 82 81 e2 3d 07 ac 80 bc 76 12 dc bc
       0.14158478 0.11059858 -0.015707029 -0.026864272
0001e0 75 cd b5 3e 16 ea 1d 3d 23 5f 55 3d a8 75 f8 3c
       0.35508314 0.03855332 0.052092683 0.03032954
0001f0 c0 9e 3b bd 82 48 97 3c e7 be 26 3d 08 f5 66 bd
       -0.045805693 0.018467192 0.040709402 -0.056386024
000200 a1 ee 00 3e ae 48 39 3d 80 b7 32 bd 14 a7 04 bd
       0.1259103 0.04523533 -0.04363203 -0.0323859
000210 fb db 8f 3c 48 be 3d 3d 20 39 b2 bd 3f fd ac be
       0.01756095 0.046324044 -0.08702302 -0.3378696
000220 f5 10 bd bb 4d c0 f5 bb bf 86 19 3d c6 8a 83 3d
       -0.0057698437 -0.0074997307 0.03748202 0.06422953
000230 a1 84 c0 3d c0 86 66 3d d5 d9 06 bd b8 ff 28 be
       0.09400297 0.05628085 -0.032922585 -0.16503799
000240 7a 03 6e be 2d de 9b 3d c8 8d b4 bd 8b 81 27 be
       -0.23243514 0.07610736 -0.08816105 -0.1635801
000250 de 0c 27 be a8 16 94 3e 1a d1 cd 3d 98 51 5c 3c
       -0.16313502 0.28923535 0.100496486 0.013447188
000260 97 82 b0 bc 03 00 a0 3e 6b 72 64 be 70 93 b6 bd
       -0.021546645 0.3125001 -0.22309272 -0.0891484
000270 a2 e2 4d 3e d3 d8 e2 3d 07 ed 8a bd b9 c5 b8 bc
       0.20105985 0.11076512 -0.06783491 -0.022555219
000280 34 65 be 3e 0d 4b 08 bd 83 f2 11 bd 71 2c 0d 3e
       0.37186587 -0.0332747 -0.035631668 0.13786484
000290 6d ca b2 bd 11 f7 dd 3d e4 e0 15 be 03 60 54 3e
       -0.08730016 0.1083814 -0.1463657 0.2073975
0002a0 3b e8 81 bd dc 33 c6 bd d1 26 f4 bd a3 13 15 be
       -0.063431226 -0.0967786 -0.11921466 -0.14558272
0002b0 88 8e 3f bd 43 a4 f7 bd 8a 82 11 3e 2f e5 33 be
       -0.046766788 -0.12091877 0.14209953 -0.17567895
0002c0 72 89 db bd d9 a8 a6 bd e3 f4 17 bd d1 fa 89 3e
       -0.10719575 -0.08137674 -0.037098777 0.2694917
0002d0 0c 11 2e be d6 b2 3c 3d 95 00 81 bd dd 9a 8f 3c
       -0.1699869 0.04606899 -0.06298939 0.0175299
0002e0 2f 93 1f be 18 73 09 bd 57 f7 f0 3d 1e 23 bb 3d
       -0.1558349 -0.033557028 0.11765926 0.091375574
0002f0 07 d5 7d 3e ad 2a c6 3d d4 9e 2f 3b e6 a5 32 be
       0.24788295 0.096761085 0.002679755 -0.17446098
000300 a3 45 98 3d 76 ba 28 3e 27 86 4d be 41 6c 07 bd
       0.07435157 0.16477379 -0.20070706 -0.033062223
000310 a9 37 9f 3d b2 b7 61 3a 66 bd 67 3e 12 c2 53 3e
       0.07774288 0.00086104416 0.22630844 0.206795
000320 bb 53 a9 3c 88 5f ba 3d 40 58 8c bd 93 a7 a7 3c
       0.020669809 0.091002524 -0.0685277 0.020465648
000330 5e 00 61 be be 2b c3 bc 6a b6 e7 3d 6a 81 05 3e
       -0.21972796 -0.023824569 0.113140896 0.13037649
000340 b3 0b fc 3d 78 85 58 3d d9 13 72 bd 9e c1 ea 3c
       0.12306919 0.05286166 -0.05910096 0.028656777
000350 55 48 7b bd 2f 1d 49 3c 75 75 00 bd 46 60 f5 bd
       -0.061348278 0.012275024 -0.031362016 -0.11981253
000360 cc 74 f3 3d 74 b7 83 3d 0f 45 b1 3d 06 a2 71 3e
       0.118875116 0.06431475 0.0865575 0.23596963
000370 1d 3c a2 3d 6c 11 24 b9 66 55 74 3e 1c e0 72 bb
       0.07921622 -0.00015646749 0.23860702 -0.003705985
000380 1f 86 5c bc e0 24 90 3e ee 47 eb 3c 91 67 32 bd
       -0.013459711 0.28153133 0.028720822 -0.0435558
000390 8e 4d 3e 3e a7 14 d6 3d 75 fd 12 3e 16 0b 21 be
       0.18584272 0.10453158 0.14354499 -0.15726885
0003a0 aa 55 3a 3d 84 e2 ae bd 74 85 2a 3e ad d3 51 3d
       0.045491852 -0.08539298 0.16652471 0.05122726
0003b0 f2 ac ac 3b 76 f8 66 3d b0 bc 91 3d 82 0c 84 3d
       0.00526964 0.056389295 0.071160674 0.06447698
0003c0 f9 41 39 be 18 3a 74 3e cc a2 dd bc 31 95 aa 3d
       -0.18091573 0.23850286 -0.027055167 0.08329237
0003d0 c3 9f 5f be bb 01 95 3c 02 e0 c7 3d 4c 3c 77 bc
       -0.21838288 0.018189302 0.09759523 -0.0150900595
0003e0 98 35 aa bd fa c7 98 3b 83 d2 e8 3d 64 da 69 3b
       -0.083110034 0.004662511 0.11368277 0.003568315
0003f0 b1 c0 a3 3d 49 1d e6 3c a2 17 60 be 23 97 96 3e
       0.07995737 0.028090136 -0.21884015 0.29412183

fc3.bias f4 [10]
000000 d0 79 08 be 08 a6 f8 be 3e d9 15 bd c4 75 39 3e
       -0.13327718 -0.48564172 -0.03658413 0.1811133
000010 2e 49 f1 3e 0f 90 ef bd 7f 09 4e 3e 79 8d 46 be
       0.47126144 -0.11697399 0.2012081 -0.19389905
000020 22 40 a2 3e 9f aa 51 be
       0.31689554 -0.20475243
